nixiangsheji/models/best_model.pt (torch, 364962 bytes, 78 tensors)

gc1.linear.weight f4 [64, 5]
0.3273794 0.3780287 -0.07803945 0.3668378 -0.0779564 0.11985223 -0.21899946 0.21769246
0.3897696 -0.23010254 0.35701635 0.06537354 0.31522328 -0.013180078 0.20159884 -0.08417874
0.31715244 -0.003733269 -0.12316045 0.091146976 -0.2186263 0.047711685 -0.1877379 0.38095474
-0.5243349 -0.20617008 -0.12628183 -0.26889724 0.042209417 -0.44170353 0.36578 -0.4048619
0.2713847 0.053504445 -0.13895385 0.19909084 0.040240005 0.42417565 0.0036139134 -0.08221709
0.10126382 -0.12903842 0.16693322 0.31234482 0.24636954 -0.13697684 0.24210766 -0.017770456
0.2697577 -0.28728727 -0.54746985 -0.14600939 -0.17051524 0.29372755 0.14027914 0.14681335
0.09076212 -0.13512735 0.31774852 -0.34568354 0.01938316 -0.23885348 0.15732032 -0.15401244
0.21253324 -0.0956334 0.41043943 -0.18866588 -0.16581182 -0.21360184 0.37057635 0.1138853
0.40622947 -0.2738504 -0.36224186 -0.36625388 -0.33713803 0.118158035 0.13198133 0.33147478
-0.29917347 -0.29732233 0.28267 -0.18301147 0.27320343 -0.10552814 0.23388743 -0.4118114
-0.21008162 0.11239169 0.00939352 -0.090142265 0.33800694 0.22388528 -0.3060607 -0.2670058
0.37391642 -0.21877606 -0.12198046 -0.49781415 -0.25120023 0.1223237 -0.08952082 -0.16717269
0.03615967 -0.30548334 -0.3794145 -0.24626382 -0.39140674 -0.2847579 0.41826907 0.07898098
0.10258759 -0.35778892 -0.36266 -0.14885765 0.06993127 -0.3935128 -0.19269228 -0.26773274
0.0012393296 -0.16640961 -0.030990005 -0.3030452 -0.30696523 -0.4014147 -0.12184715 -0.35297716
0.4104448 -0.26507702 0.3546837 0.12159786 -0.49791408 0.27421576 -0.1388603 -0.17142862
-0.3712188 -0.44460216 0.20765236 -0.09769106 0.20862027 -0.32181564 0.4133199 -0.45135918
0.016264226 0.09687024 0.20151682 0.32263058 0.3911013 -0.396549 0.10159643 -0.21987328
-0.06991342 -0.26003847 0.3698799 -0.17694737 0.25405502 0.18525967 0.09645433 -0.2361146
0.3652776 0.0829453 0.035025124 -0.39481664 0.16490023 -0.059495956 -0.19876343 0.34315467
0.0068166633 -0.33367547 -0.0642253 0.09626854 0.4213969 -0.1460346 -0.12651372 -0.116154455
-0.24965563 0.23670816 0.44670874 -0.26721752 0.03022883 0.2248279 0.00022013392 -0.020770762
0.22785361 0.2287609 0.16108638 -0.027645323 -0.097834446 0.05870609 -0.1396886 -0.16062415
0.29880875 0.33146992 0.015358221 -0.12735607 -0.018578552 0.0019720385 0.022493029 0.10151958
-0.29388502 -0.08775476 0.45002878 0.11336548 0.08734519 -0.17503719 -0.16489595 -0.40059912
-0.07473404 0.19998294 0.23839033 0.21798392 -0.42435142 -0.22676332 -0.041537676 0.40697092
0.040626988 -0.22350602 0.16150033 -0.21353549 -0.3289213 0.29462597 -0.27850515 -0.0445748
-0.5541991 0.26221186 0.31016102 0.19266948 -0.33933362 -0.42226356 -0.3843258 0.30759087
0.1957847 0.28411815 0.2114543 0.09650565 -0.018823348 -0.34010863 -0.38316017 -0.41830063
0.31158686 -0.13968928 -0.1807479 -0.25116044 0.07896025 -0.31619477 -0.30469874 0.0855414
-0.23652974 0.25727138 -0.040564224 -0.19293348 -0.00808502 -0.14716667 -0.060621917 -0.31701195
00000000: 469e a73e fa8c c13e 26d3 9fbd 2ad2 bb3e
00000010: 9ba7 9fbd 1675 f53d 6541 60be c6ea 5e3e
00000020: e28f c73e 00a0 6bbe d9ca b63e 90e2 853d
00000030: f264 a13e 41f1 57bc ed6f 4e3e e765 acbd
00000040: ce61 a23e dca9 74bb 8c3b fcbd 44ab ba3d
00000050: 93df 5fbe 546d 433d 5d3e 40be 800c c33e
00000060: d03a 06bf 401e 53be 0650 01be e6ac 89be
00000070: c8e3 2c3d f726 e2be 8447 bb3e 0f4a cfbe
00000080: eff2 8a3e 7a27 5b3d eb49 0ebe 78de 4b3e
00000090: b4d2 243d 8d2d d93e 68d7 6c3b 6f61 a8bd
000000a0: 6863 cf3d a622 04be 8bf0 2a3e a9eb 9f3e
000000b0: 4c48 7c3e a843 0cbe 12eb 773e 5993 91bc
000000c0: ae1d 8a3e 5117 93be fc26 0cbf 7c83 15be
000000d0: 8c9b 2ebe 7563 963e 56a5 0f3e 3d56 163e
000000e0: 7ee1 b93d d35e 0abe efaf a23e 6ffd b0be
000000f0: 6fc9 9e3c 0296 74be 9418 213e 70b5 1dbe
00000100: 50a2 593e 72db c3bd 1e25 d23e a131 41be
00000110: 93ca 29be 71ba 5abe 2fbc bd3e b23c e93d
00000120: 4ffd cf3e 1f36 8cbe c477 b9be a185 bbbe
00000130: 5b9d acbe d7fc f13d 1d26 073e 10b7 a93e
00000140: 442d 99be a23a 98be 1fba 903e 5c67 3bbe
00000150: 52e1 8b3e 231f d8bd 3080 6f3e f2d8 d2be
00000160: a31f 57be 9d2d e63d 47e7 193c 829c b8bd
00000170: 3f0f ad3e 2f42 653e fdb3 9cbe fcb4 88be
00000180: f971 bf3e d506 60be e4d0 f9bd 7fe1 febe
00000190: 519d 80be d984 fa3d b156 b7bd 512f 2bbe
000001a0: 2a1c 143d 5068 9cbe 9e42 c2be 952c 7cbe
000001b0: 7766 c8be cacb 91be 5d27 d63e c8c0 a13d
000001c0: 7119 d23d 1c30 b7be 92ae b9be 246e 18be
000001d0: 2038 8f3d 827a c9be 2051 45be 4414 89be
000001e0: 0071 a23a 4867 2abe c0de fdbc be28 9bbe
000001f0: 8c2a 9dbe 3a86 cdbe 008b f9bd 6cb9 b4be
00000200: d225 d23e 2db8 87be 1a99 b53e 4c08 f93d
00000210: 98ee febe 0266 8c3e 6531 0ebe fc8a 2fbe
00000220: 6410 bebe e5a2 e3be d2a2 543e 4012 c8bd
00000230: 8da0 553e 05c5 a4be aa9e d33e 8d18 e7be
00000240: 8e3c 853c e863 c63d 6d5a 4e3e d62f a53e
00000250: 6e3e c83e 7808 cbbe ca11 d03d 7626 61be
00000260: c42e 8fbd c323 85be e660 bd3e b131 35be
00000270: 8013 823e b6b4 3d3e d989 c53d 07c8 71be
00000280: aa05 bb3e 3adf a93d 8176 0f3d 6825 cabe
00000290: 9bdb 283e 08b2 73bd a488 4bbe f8b1 af3e
000002a0: 515e df3b 83d7 aabe 8e88 83bd 7128 c53d
000002b0: 56c1 d73e 188a 15be d08c 01be 63e2 edbd
000002c0: baa5 7fbe a063 723e 02b7 e43e bcd0 88be
000002d0: 74a2 f73c 4939 663e c0d3 6639 7227 aabc
000002e0: 7552 693e 4c40 6a3e d4f3 243e 7278 e2bc
000002f0: 6d5d c8bd cc75 703d 870a 0fbe a87a 24be
00000300: 76fd 983e 6db6 a93e 0ca1 7b3c a169 02be
00000310: 0c32 98bc 513d 013b 4d43 b83c 7fe9 cf3d
00000320: 1978 96be c5b8 b3bd 2c6a e63e 292c e83d
00000330: 09e2 b23d f33c 33be 7cda 28be 541b cdbe
00000340: 290e 99bd 54c8 4c3e 981c 743e 2d37 5f3e
00000350: 9744 d9be a534 68be 6923 2abd 7e5e d03e
00000360: 7c68 263d c3de 64be 5860 253e 0ca9 5abe
00000370: 5f68 a8be 37d9 963e 3a98 8ebe 1194 36bd
00000380: fedf 0dbf a240 863e 6dcd 9e3e 264b 453e
00000390: 23bd adbe ee32 d8be 5ac6 c4be 8d7c 9d3e
000003a0: c97b 483e ef77 913e 7a87 583e c1a4 c53d
000003b0: 6c33 9abc b822 aebe 922d c4be 802b d6be
000003c0: 5088 9f3e b50a 0fbe fa15 39be 1a98 80be
000003d0: e9b5 a13d 48e4 a1be 7901 9cbe 5430 af3d
000003e0: da34 72be 13b9 833e ac26 26bd 5b90 45be
000003f0: 0877 04bc dcb2 16be b04e 78bd 644f a2be

gc1.linear.bias f4 [64]
-0.31433997 -0.105268866 0.31721976 0.20218122 -0.22149244 -0.35861388 -0.36044842 -0.47858882
-0.3641301 -0.15135707 0.34707528 0.04503756 -0.28448725 -0.34322858 0.21407875 -0.35469982
-0.04594369 0.19787987 -0.23788157 -0.08970823 -0.05719788 -0.10580328 -0.27196756 -0.39866334
-0.36150825 -0.22094865 0.4138545 -0.13631096 -0.22308105 0.09587522 0.10312818 0.25385824
0.32994154 0.3313949 -0.36150667 0.122149356 0.26780003 -0.06535069 -0.26373065 0.39641652
-0.15367565 -0.235335 -0.3860801 -0.026057329 0.15450737 0.05854049 0.053278923 -0.3561408
-0.2347418 0.0024894855 0.55701184 0.2179366 -0.27661073 -0.029929882 -0.38078314 -0.30879906
0.30707678 0.36288875 0.4376014 -0.41058952 0.2730185 -0.33740136 0.13812777 0.361505
00000000: 2bf1 a0be 3497 d7bd a16a a23e 9808 4f3e
00000010: eace 62be 3d9c b7be b28c b8be 9809 f5be
00000020: 436f babe 59fd 1abe dab3 b13e 4e79 383d
00000030: 50a8 91be a8bb afbe 7637 5b3e 379b b5be
00000040: 732f 3cbd 05a1 4a3e 3a97 73be f3b8 b7bd
00000050: 5348 6abd 64af d8bd 553f 8bbe 9a1d ccbe
00000060: 9c17 b9be 5d40 62be bde4 d33e 1a95 0bbe
00000070: 5c6f 64be 3a5a c43d de34 d33d b5f9 813e
00000080: 19ee a83e 98ac a93e 6717 b9be 7129 fa3d
00000090: 161d 893e 95d6 85bd b407 87be 1bf7 ca3e
000000a0: 265d 1dbe a9fb 70be 4aac c5be 2e76 d5bc
000000b0: 2e37 1e3e 27c8 6f3d 003b 5a3d 1658 b6be
000000c0: 2860 70be a326 233b 5498 0e3f c62a 5f3e
000000d0: ec9f 8dbe 832f f5bc 02f6 c2be e91a 9ebe
000000e0: 2b39 9d3e 8ecc b93e 4a0d e03e ca38 d2be
000000f0: 15c9 8b3e dfbf acbe 5e71 0d3e 2f17 b93e

gc2.linear.weight f4 [64, 64]
-0.0029143866 0.08738028 -0.11772287 -0.05605529 0.06767238 -0.027233481 -0.037440337 -0.071121566
0.077324614 0.052392412 0.011339665 -0.074579984 -0.14126222 0.016024081 0.025617296 -0.07986745
-0.06430516 0.07771161 -0.0024871216 0.0043958635 -0.03747931 -0.11319871 -0.12619787 -0.059751883
-0.063540176 0.024231933 -0.046694677 -0.09149011 0.21869163 0.02982319 0.079104014 -0.0743384
-0.06112829 0.032541383 -0.0019500155 -0.08169554 -0.015788397 -0.05353753 -0.09172332 0.06294537
0.08594142 0.009310931 -0.016434843 -0.116325445 -0.049555138 0.024467228 0.050682906 -0.01580219
-0.049419105 0.044124793 -0.10124844 0.07136999 -0.07118841 0.016209183 -0.052993227 -0.020214736
-0.037744433 0.06517838 -0.021299485 0.097574934 0.09858759 -0.11026276 -0.09886037 0.08989292
0.09795174 -0.09544341 -0.009662911 -0.12326579 -0.10232489 0.024142817 0.033254325 0.026497632
-0.034020588 0.11532222 0.017872244 -0.0737606 -0.0070767254 0.03001815 0.043774083 -0.088385105
0.0468487 -0.06386021 -0.103867546 -0.06827593 0.12055117 0.106857225 0.111935556 0.0733764
0.09443119 -0.016731218 -0.068778485 0.06245707 -0.064772844 -0.08435823 -0.039916754 0.026232406
0.06434958 -0.048551127 -0.07357079 0.016861632 -0.07367915 -0.08138268 0.06515649 -0.020998076
0.11422312 0.12159783 0.03738819 0.043019712 0.028785467 0.0019576102 -0.009091556 0.0017180145
0.046678096 0.11622135 -0.032394886 -0.052839473 -0.030270606 -0.060390532 0.021254838 0.09330605
0.09774718 0.05739069 -0.09199144 -0.0670881 -0.027463928 -0.023040518 0.010280967 -0.11474644
0.032829054 -0.03878511 -0.07725167 -0.099067725 0.10428505 -0.11836748 0.053264193 -0.077225454
-0.025276883 0.052390773 -0.007593611 0.07171319 0.07794942 -0.0919891 0.036017034 0.01911115
-9.769437e-05 0.023404775 0.018854396 -0.076034054 -0.011177472 0.118765 0.06883654 -0.0046960562
-0.11756636 0.030761886 -0.064463004 0.015943976 -0.099743925 -0.009918971 -0.03220901 0.050159812
0.120636456 0.100139946 -0.12987773 0.08969653 0.10446362 -0.042337824 -0.022354852 0.06755182
-0.101533376 -0.034282196 -0.0070254556 -0.09879806 0.055036332 0.021159686 0.055529527 0.10143439
-0.028232852 0.114353016 0.057956167 -0.10430058 -0.08671446 -0.0875701 -0.060567006 -0.106032215
-0.4419368 -0.03889274 -0.07163438 -0.123229235 -0.021541342 -0.008677897 0.104324475 -0.032981373
-0.04637644 0.06770025 -0.07060557 -0.07220169 0.07701619 -0.10891271 0.01619641 0.10940966
0.04651472 0.011345618 -0.07279889 -0.01520832 0.037976217 0.015793791 0.03829083 0.10861598
-0.12551959 -0.028660685 -0.06372345 -0.10022423 -0.0054137036 -0.11002961 0.07875808 0.014476851
-0.06736976 0.065322384 -0.13325761 -0.048349902 -0.01256629 -0.1158379 -0.08303116 -0.045250155
0.08442614 0.11341283 0.040861942 -0.10352832 -0.09295957 0.09893899 0.027788173 -0.015382076
-0.01925541 -0.100462094 -0.07403552 0.10922125 -0.027911954 -0.018564247 -0.12753057 -0.07950974
0.002656112 -0.073372975 -0.0627705 0.055297874 -0.11890943 0.02601872 -0.06300947 -0.061006382
0.047988713 0.086191714 -0.07561662 -0.051321134 -0.14247039 -0.06750396 -0.12175186 -0.037870288
00000000: 4bff 3ebb 6ff4 b23d b018 f1bd 3b9a 65bd
00000010: d197 8a3d c018 dfbc 0a5b 19bd 2fa8 91bd
00000020: 5e5c 9e3d 6d99 563d 01ca 393c 64bd 98bd
00000030: 0ba7 10be ef44 833c 5ddb d13c 8c91 a3bd
00000040: 6cb2 83bd 4427 9f3d fafe 22bb 2d0b 903b
00000050: e883 19bd bad4 e7bd 043a 01be 64be 74bd
00000060: 5a21 82bd 0c82 c63c eb42 3fbd 2b5f bbbd
00000070: b3f0 5f3e c34f f43c 4901 a23d bb3e 98bd
00000080: a861 7abd 1d4a 053d aa97 ffba fe4f a7bd
00000090: ab56 81bc 2b4a 5bbd 70d9 bbbd 81e9 803d
000000a0: 0e02 b03d e08c 183c 5da2 86bc 093c eebd
000000b0: 54fa 4abd 7f6f c83c e198 4f3d 9873 81bc
000000c0: b06b 4abd 33bc 343d 585b cfbd 6e2a 923d
000000d0: 3bcb 91bd 1fc9 843c 6d0f 59bd 6099 a5bc
000000e0: e899 1abd 3e7c 853d 427c aebc 5ed5 c73d
000000f0: 4ae8 c93d 71d1 e1bd 4e77 cabd c719 b83d
00000100: ec9a c83d d677 c3bd 3051 1ebc c672 fcbd
00000110: b68f d1bd 28c7 c53c b035 083d 9011 d93c
00000120: 2c59 0bbd 0e2e ec3d d068 923c cc0f 97bd
00000130: e0e3 e7bb a0e8 f53c 744c 333d 4003 b5bd
00000140: 6ce4 3f3d 24c9 82bd 82b8 d4bd 40d4 8bbd
00000150: 88e3 f63d f6d7 da3d 783e e53d 5e46 963d
00000160: 2465 c13d e80f 89bc bcdb 8cbd fcd2 7f3d
00000170: a0a7 84bd 02c4 acbd c07f 23bd 58e5 d63c
00000180: b6c9 833d 8cdd 46bd 48ac 96bd 6821 8a3c
00000190: 18e5 96bd f6ab a6bd c470 853d 2804 acbc
000001a0: d0ed e93d 4808 f93d 5c24 193d 7035 303d
000001b0: 80cf eb3c 404b 003b c0f4 14bc 002f e13a
000001c0: 8831 3f3d 7605 ee3d 80b0 04bd 346e 58bd
000001d0: 10fa f7bc 105c 77bd a01e ae3c 3e17 bf3d
000001e0: ac2f c83d 8012 6b3d 0266 bcbd 7c65 89bd
000001f0: 08fc e0bc 78bf bcbc 8071 283c 2e00 ebbd
00000200: c277 063d 23dd 1ebd 2036 9ebd 05e4 cabd
00000210: 6693 d53d a66a f2bd 8e2b 5a3d 6128 9ebd
00000220: 7711 cfbc b597 563d d3d3 f8bb 5dde 923d
00000230: f2a3 9f3d c864 bcbd 9986 133d fd8e 9c3c
00000240: 44e1 ccb8 5fbb bf3c 8974 9a3c beb7 9bbd
00000250: b721 37bc 103b f33d 2cfa 8c3d 60e1 99bb
00000260: a2c6 f0bd 5a00 fc3c 2e05 84bd f19c 823c
00000270: 8b46 ccbd 2e83 22bc 98ed 03bd 6074 4d3d
00000280: 3f10 f73d 2c16 cd3d abfe 04be d0b2 b73d
00000290: 06f1 d53d 6d6a 2dbd 8621 b7bc 9c58 8a3d
000002a0: bbf0 cfbd 7d6b 0cbd cb35 e6bb a356 cabd
000002b0: c76d 613d 1457 ad3c ee72 633d d5bc cf3d
000002c0: 9548 e7bc ea31 ea3d 7263 6d3d 8b9b d5bd
000002d0: 5a97 b1bd f457 b3bd 1c15 78bd 6b27 d9bd
000002e0: 8a45 e2be fe4d 1fbd 0cb5 92bd 9c5f fcbd
000002f0: 7877 b0bc bd2d 0ebc 12a8 d53d 7a17 07bd
00000300: 39f5 3dbd 6ea6 8a3d a799 90bd 7bde 93bd
00000310: aaba 9d3d a00d dfbd 55ae 843c 2c12 e03d
00000320: 3886 3e3d f9e2 393c 9617 95bd 512c 79bc
00000330: f38c 1b3d fb61 813c d8d6 1c3d 0e72 de3d
00000340: 3588 00be d0c9 eabc 7181 82bd 5c42 cdbd
00000350: 7065 b1bb 3457 e1bd eb4b a13d 5030 6d3c
00000360: 28f9 89bd bec7 853d af74 08be 8c0a 46bd
00000370: d7e2 4dbc 6c3c edbd 3e0c aabd 3a58 39bd
00000380: 9de7 ac3d fc44 e83d da5e 273d a806 d4bd
00000390: 9661 bebd 86a0 ca3d 06a4 e33c 1a05 7cbc
000003a0: 86bd 9dbc 12bf cdbd ef9f 97bd 64af df3d
000003b0: 9ca7 e4bc 0c14 98bc 6097 02be 01d6 a2bd
000003c0: 2a12 2e3b 9244 96bd d28d 80bd 0680 623d
000003d0: ca86 f3bd 3625 d53c 1c0b 81bd d4e1 79bd
000003e0: d08f 443d 4885 b03d e3dc 9abd 1c36 52bd
000003f0: c2e3 11be 843f 8abd 0a59 f9bd e01d 1bbd

gc2.linear.bias f4 [64]
-0.045069445 -0.11641814 0.20735782 0.08236896 0.18118773 -0.010316604 0.18531224 -0.13181211
-0.110450014 0.06935817 0.011797987 0.03529908 -0.073869005 0.13196433 0.17320155 -0.07920806
-0.050728355 -0.16087759 0.16044208 0.0771606 -0.12949067 -0.019403523 0.055029217 -0.04030745
-0.04618354 -0.051965322 -0.084763296 0.014680369 -0.19370915 0.2239589 -0.062294956 -0.015914813
-0.054420985 0.046963245 -0.05777484 -0.11374797 -0.077515244 -0.10972179 -0.09759357 0.07546189
0.068765745 -0.08671339 -0.12778078 -0.0273239 0.032964967 -0.076220706 -0.016055852 0.028642707
-0.04578553 0.013541638 0.27608976 0.20237401 -0.033364065 0.098101184 0.08564023 0.024109222
0.05173764 0.0565321 -0.06831715 0.027386203 0.060183346 0.21716805 0.09174873 -0.022978619
00000000: bd9a 38bd a26c eebd 9c55 543e 0fb1 a83d
00000010: 4789 393e f906 29bc 7ec2 3d3e c1f9 06be
00000020: 9e33 e2bd a80b 8e3d 584c 413c c595 103d
00000030: a248 97bd a821 073e bf5b 313e d637 a2bd
00000040: 89c8 4fbd 18bd 24be ee4a 243e 6006 9e3d
00000050: 3499 04be 23f4 9ebc 5166 613d 6d19 25bd
00000060: f42a 3dbd 97d9 54bd 6198 adbd ee85 703c
00000070: b15b 46be 7b55 653e ff28 7fbd c85f 82bc
00000080: 8ae8 5ebd 885c 403d 50a5 6cbd b2f4 e8bd
00000090: 50c0 9ebd d1b5 e0bd 23df c7bd c38b 9a3d
000000a0: 0ed5 8c3d ca96 b1bd f7d8 02be 5fd6 dfbc
000000b0: 4606 073d 9a19 9cbd 9087 83bc 1ca4 ea3c
000000c0: 9c89 3bbd bfdd 5d3c a35b 8d3e 223b 4f3e
000000d0: c2a8 08bd 46e9 c83d 2564 af3d b480 c53c
000000e0: d9ea 533d 348e 673d dde9 8bbd 0859 e03c
000000f0: d082 763d 4d61 5e3e c2e6 bb3d a83d bcbc

gc3_mu.linear.weight f4 [32, 64]
0.07129794 0.004036933 0.0891294 -0.025900409 0.02463633 0.01689944 0.0524411 -0.08539434
-0.034989506 0.0907799 0.015672829 0.07993357 -0.04121228 -0.029004753 -0.10298398 -0.07926863
-0.08188829 0.06494217 0.014560823 -0.048194576 0.1391289 0.028738169 0.041883487 -0.04330951
0.086542234 -0.05658178 0.021976877 -0.071417935 0.04173154 -0.016068945 0.06390199 -0.1048339
-0.029146867 -0.029075123 -0.020027453 -0.061399266 -0.039671298 -0.03768373 0.095785804 -0.020775722
0.11581494 -0.02982531 -0.063322976 -0.009911798 -0.021853501 0.039704084 0.08714824 0.054534376
-0.011409663 -0.013824702 0.0014261844 -0.08769475 0.056649666 0.10855291 0.056188226 -0.011901646
0.0018564606 -0.056868654 0.0019769673 0.0680249 -0.04293281 0.0322993 -0.021106783 -0.034182712
0.0005601797 -0.09438741 0.02223104 -0.0998554 -0.06414394 0.07105233 0.09239963 -0.02559621
-0.08934273 -0.10263413 -0.044266794 -0.06886058 0.084872805 -0.08427614 0.05250214 0.016826034
-0.04116424 0.08699452 -0.01263069 -0.012754453 -0.059492372 -0.021821324 0.034007862 0.098467216
-0.04218225 -0.0186129 -0.00111447 0.06626308 0.08920805 0.05015458 -0.063204825 0.08954726
-0.016976759 0.052769408 0.046440482 -0.10191184 0.017552044 -0.021587033 -0.08991765 0.12387058
0.09439561 0.0887418 0.0076489705 -0.07889395 -0.06524204 0.04418093 -0.025155388 0.08988161
-0.030750751 -0.020033997 -0.08726154 0.039059103 0.09761158 -0.04444774 -0.07053218 -0.042279217
0.006462843 -0.0982485 0.05220458 0.040037043 -0.060530752 -0.07227186 -0.09904587 0.09771204
0.099949 0.035528705 -0.066665806 -0.013796064 -0.29820126 0.05723998 -0.18980247 0.025066374
-0.049605086 -0.0044386387 -0.083117194 -0.09577501 0.14668262 -0.25290832 -0.04854047 0.07225519
-0.11666735 0.053988356 -0.20733878 -0.17319794 0.115457766 0.08014412 0.0052611646 -0.03929481
0.1192905 0.11393003 0.18484524 -0.015713379 0.16954517 -0.20056604 0.034385577 0.032206655
0.11074406 0.003680719 -0.00061282056 0.12330249 -0.035477005 -0.060101893 0.098501146 0.029767238
-0.08615303 0.11972778 -0.13392062 -0.068658456 0.016015895 0.065846875 -0.07414552 0.09255478
0.27797398 -0.014599322 -0.35761535 -0.12231015 0.02061708 0.09311247 -0.01576898 0.007759657
0.041727602 -0.01821274 -0.059446506 0.17651945 -0.07613451 -0.21280025 -0.21352161 -0.047712356
0.09385217 -0.012101769 0.037623096 -0.08655634 0.015287693 -0.047681507 -0.0035509046 -0.068610966
-0.055459186 -0.107160896 -0.09595978 -0.01628436 -0.043946628 0.08812748 -0.0038139287 0.09868845
-0.00923703 0.0367944 0.22167173 -0.073650256 -0.03368865 0.08419911 -0.019317772 -0.02389054
0.01003173 -0.040398262 0.104238614 -0.041727785 0.0381865 -0.085156195 -0.032447677 -0.047088295
0.020534387 0.076395035 -0.109632686 -0.08717872 -0.11388345 0.07158731 0.102830954 -0.10459872
0.0132669285 0.03897641 -0.05810888 0.029122865 0.11604237 0.12260868 0.06269313 -0.011333287
0.028140362 -0.024403067 -0.14607598 0.0061085895 0.103339426 -0.09948879 0.016631994 -0.028046915
0.022952296 0.10839824 0.0144736925 -0.005834457 -0.03599021 -0.15547372 -0.20048165 0.054464847
00000000: a804 923d 4048 843b 7a89 b63d 182d d4bc
00000010: 21d2 c93c b270 8a3c 7bcc 563d 3ae3 aebd
00000020: 2851 0fbd d0ea b93d 4e64 803c 36b4 a33d
00000030: 35ce 28bd 609b edbc 44e9 d2bd 9757 a2bd
00000040: 0cb5 a7bd 6700 853d 8590 6e3c ad67 45bd
00000050: ce77 0e3e 4f6c eb3c 058e 2b3d 5065 31bd
00000060: 0e3d b13d 4cc2 67bd da08 b43c 9143 92bd
00000070: b1ee 2a3d 05a3 83bc 0cdf 823d 28b3 d6bd
00000080: 69c5 eebc f42e eebc 9d10 a4bc cc7d 7bbd
00000090: 5f7e 22bd 415a 1abd 592b c43d d931 aabc
000000a0: 6230 ed3d 3554 f4bc 7aaf 81bd 1865 22bc
000000b0: 1d06 b3bc c0a0 223d c77a b23d 705f 5f3d
000000c0: 98ef 3abc 0181 62bc cfee ba3a 4e99 b3bd
000000d0: 7b09 683d fd50 de3d a025 663d 1fff 42bc
000000e0: 7b54 f33a 1bef 68bd 0290 013b a450 8b3d
000000f0: 50da 2fbd 454c 043d 22e8 acbc 2c03 0cbd
00000100: 06d9 123a 304e c1bd df1d b63c fd80 ccbd
00000110: e65d 83bd e283 913d 043c bd3d 25af d1bc
00000120: 52f9 b6bd d831 d2bd 1951 35bd c706 8dbd
00000130: cbd1 ad3d f898 acbd 7c0c 573d c0d6 893c
00000140: d69b 28bd 2f2a b23d f4f0 4ebc 0ef8 50bc
00000150: 46ae 73bd a2c2 b2bc d44b 0b3d 2ea9 c93d
00000160: 4cc7 2cbd 157a 98bc 6813 92ba f0b4 873d
00000170: b6b2 b63d e46e 4d3d 8871 81bd 8e64 b73d
00000180: d812 8bbc bc24 583d 6038 3e3d 28b7 d0bd
00000190: 4ec9 8f3c 4ad7 b0bc bf26 b8bd dcaf fd3d
000001a0: 7c52 c13d 43be b53d 37a4 fa3b 2793 a1bd
000001b0: 9e9d 85bd 10f7 343d ac12 cebc d913 b83d
000001c0: 00e9 fbbc 561e a4bc 2eb6 b2bd 70fc 1f3d
000001d0: 94e8 c73d d50e 36bd 2d73 90bd f92c 2dbd
000001e0: 42c6 d33b 8236 c9bd 78d4 553d e2fd 233d
000001f0: 18ef 77bd 4503 94bd 90d8 cabd 401d c83d
00000200: 10b2 cc3d 8c86 113d 1588 88bd e308 62bc
00000210: d6ad 98be 7874 6a3d 945b 42be ff57 cd3c
00000220: b42e 4bbd 0072 91bb 5939 aabd b025 c4bd
00000230: f833 163e 337d 81be 5fd2 46bd 87fa 933d
00000240: 4bef eebd e522 5d3d 9e50 54be cd5a 31be
00000250: 1f75 ec3d 9a22 a43d d965 ac3b 98f3 20bd
00000260: 944e f43d 2654 e93d 1248 3d3e 58b9 80bc
00000270: 409d 2d3e 2f61 4dbe e4d7 0c3d 20eb 033d
00000280: c8cd e23d 3838 713b b1a5 20ba 0486 fc3d
00000290: 5650 11bd 672d 76bd f8ba c93d 6cda f33c
000002a0: 0071 b0bd d733 f53d 7d22 09be ce9c 8cbd
000002b0: c433 833c bada 863d 9bd9 97bd 5c8d bd3d
000002c0: 9b52 8e3e ff31 6fbc 5c19 b7be be7d fabd
000002d0: 27e5 a83c c0b1 be3d f32d 81bc b944 fe3b
000002e0: 90ea 2a3d e232 95bc 2e7e 73bd 84c1 343e
000002f0: 69ec 9bbd 4fe8 59be 69a5 5abe 086e 43bd
00000300: 9135 c03d 8046 46bc ad1a 1a3d 7344 b1bd
00000310: 3b79 7a3c af4d 43bd 4bb6 68bb e883 8cbd
00000320: 2c29 63bd 2c77 dbbd 9086 c4bd c766 85bc
00000330: 6101 34bd 2e7c b43d 1bf3 79bb 2c1d ca3d
00000340: e956 17bc bab5 163d eafd 623e f2d5 96bd
00000350: 1cfd 09bd 9570 ac3d 4e40 9ebc 18b6 c3bc
00000360: 205c 243c a678 25bd 0e7b d53d c1ea 2abd
00000370: 7369 1c3d 5f66 aebd dbe7 04bd a8df 40bd
00000380: bb37 a83c 0075 9c3d 1a87 e0bd c28a b2bd
00000390: ba3b e9bd 5e9c 923d 0999 d23d db37 d6bd
000003a0: 885d 593c baa5 1f3d 9403 6ebd 1393 ee3c
000003b0: 9fa7 ed3d 421a fb3d 4165 803d 40af 39bc
000003c0: 9e86 e63c f1e8 c7bc f194 15be 902a c83b
000003d0: 9fa3 d33d c7c0 cbbd d23f 883c a5c2 e5bc
000003e0: 7406 bc3c e5ff dd3d 1123 6d3c f92e bfbb
000003f0: 786a 13bd 8134 1fbe 104b 4dbe 8816 5f3d

gc3_mu.linear.bias f4 [32]
0.0015277683 -0.0018587608 0.5661707 -0.0069068563 -0.0001150307 0.0026135242 0.002452614 -0.0018332457
-0.0034926762 -0.00809141 -0.0059646117 -0.005969644 0.0061777807 -0.0016064361 0.0063456995 -3.596976e-05
-0.0013663546 0.007645202 -0.0062761386 0.0027087198 -0.00058217265 0.00053470203 0.004639049 0.0029437551
0.0019380908 0.0049794577 0.0060404134 0.00018901547 0.000102548416 -0.00095850485 0.0039828867 0.0028906965
00000000: 663f c83a aaa1 f3ba 90f0 103f e952 e2bb
00000010: a33c f1b8 a947 2b3b 09bc 203b 8549 f0ba
00000020: 62e5 64bb d591 04bc ca72 c3bb 019d c3bb
00000030: fb6e ca3b 0d8f d2ba 96ef cf3b 3cde 16b8
00000040: 4117 b3ba 9a84 fa3b 11a8 cdbb c784 313b
00000050: f29c 18ba 3f2b 0c3a 2a03 983b 04ec 403b
00000060: 8907 fe3a b82a a33b a9ee c53b 7432 4639
00000070: 430f d738 2c44 7bba e082 823b d771 3d3b

gc3_logvar.linear.weight f4 [32, 64]
-0.027810065 0.0994582 -0.10267548 -0.110398754 0.04980055 0.07026072 -0.039176323 0.021292515
0.100319624 0.012434125 -0.047176782 0.05869302 0.10074551 -0.03483594 0.06781254 0.00024853062
-0.037941556 -0.02276826 -0.036399763 0.0501297 -0.08187429 -0.110229075 -0.03168191 -0.061219368
-0.07956165 -0.037366573 -0.026827356 0.025094371 0.071017265 0.010351039 0.009875947 -0.080879405
0.08952099 0.048748124 0.066745594 -0.11149284 0.07265479 0.021608558 -0.13192283 0.10483798
-0.021783331 0.010512123 0.09505847 0.0680306 0.096665956 -0.116670534 0.112491176 0.019625153
-0.014574599 -0.09809463 -0.01825191 0.107659504 0.08065916 0.08575354 -0.01584121 -0.081380144
0.01801752 -0.073550954 -0.093381695 0.027342502 0.08339126 -0.10483525 -0.11082963 0.016888782
-0.058717873 -0.06684214 -0.04165554 0.01715091 -0.008530388 0.07803509 0.044277623 0.022333609
-0.040083975 -0.011141896 0.06649346 -0.0054636407 -0.13327791 -0.0031725988 0.027980879 -0.05884574
-0.031036556 -0.032305993 0.032412488 0.09526569 -0.08893363 0.08299063 0.036244284 0.033728417
-0.07100676 -0.059609972 0.08084257 0.019994417 0.010178132 0.00198623 0.066799335 -0.031138465
0.06858356 -0.047875844 0.022025676 0.032929376 -0.07648819 -0.049828287 0.009237669 -0.12499956
-0.0071302587 0.0016747781 0.08815595 0.01102261 -0.11615433 -0.036636874 0.11353577 -0.025364943
-0.03413017 0.016113691 0.019915055 -0.07074699 0.107095376 0.013967478 -0.031079844 0.08020994
0.050330687 -0.08568274 -0.025575474 0.076379776 0.014198323 -0.05197775 -0.053270023 -0.087532535
0.062571146 0.056562275 -0.1822852 -0.032335244 -0.40423164 -0.120638974 -0.015182868 -0.024094155
-0.050778225 0.0139184 0.019159865 0.00874666 0.12208144 0.017956069 -0.114493944 0.03493178
0.024263939 -0.043041334 -0.33330914 -0.05256354 -0.006471341 -0.07758109 0.029147856 -0.061274078
0.119676456 0.14670812 0.25113904 -0.0068703988 0.16038315 -0.1569359 0.060748033 -0.0068304986
-0.0339232 0.020449292 -0.04381632 -0.0063515007 0.02656126 0.022668432 -0.11920379 0.04456829
-0.09934042 -0.04706864 -0.044442326 0.0042753657 0.0016369715 -0.1113286 0.057793193 0.101676345
0.11676927 0.18104467 -0.29940763 -0.04475315 0.06907562 -0.08073384 0.02532269 0.10440505
-0.0035649328 -0.11798642 0.014129757 0.045775127 0.011932382 -0.02153818 0.08712239 -0.06215152
0.06450861 -0.07061246 -0.062448345 0.07847785 -0.016525092 -0.02535738 -0.045680817 -0.10731368
0.060256764 -0.05550465 -0.07368421 -0.045657422 0.019425081 0.08794165 0.096937396 0.007163217
-0.11888199 0.0012333472 0.10545731 0.08831004 -0.038922757 -0.1256024 0.027794247 -0.036742795
0.04361649 0.006291068 0.007682168 0.044128504 -0.002021442 -0.00771515 0.07802062 0.114252895
-0.06482239 0.1035158 -0.00069739984 -0.0328456 -0.09412852 -0.009129458 0.0888786 -0.090623334
-0.09487891 0.100230455 -0.063692965 0.09769551 0.030610513 0.062012717 -0.005984391 -0.035970986
0.010186182 -0.012912237 -0.033765506 -0.070894524 -0.1058766 -0.032219 0.040684912 -0.089580856
0.010346159 0.03591527 0.06581629 -0.055180736 -0.00041466605 -0.11829488 0.024528453 -0.099899754
00000000: efd1 e3bc beb0 cb3d 8647 d2bd be18 e2bd
00000010: a9fb 4b3d dae4 8f3d 5a77 20bd a46d ae3c
00000020: 6074 cd3d 80b8 4b3c 713c 41bd 1868 703d
00000030: a953 ce3d 21b0 0ebd 4de1 8a3d 374d 8239
00000040: 9b68 1bbd 8184 babc eb17 15bd cd54 4d3d
00000050: b5ad a7bd c8bf e1bd e4c4 01bd 29c1 7abd
00000060: 38f1 a2bd b10d 19bd 0bc5 dbbc b692 cd3c
00000070: 8071 913d 6797 293c b9ce 213c 1aa4 a5bd
00000080: c856 b73d 1dac 473d eab1 883d 5c56 e4bd
00000090: 09cc 943d 6e04 b13c c716 07be 4bb5 d63d
000000a0: f572 b2bc 0a3b 2c3c 04ae c23d a153 8b3d
000000b0: cdf8 c53d f6f0 eebd c661 e63d eec4 a03c
000000c0: 4dca 6ebc d6e5 c8bd 0885 95bc 967c dc3d
000000d0: a130 a53d 8d9f af3d 6dc5 81bc a2aa a6bd
000000e0: 7a99 933c e2a1 96bd e73e bfbd 62fd df3c
000000f0: 09c9 aa3d ddb3 d6bd a5fa e2bd 585a 8a3c
00000100: 2782 70bd 88e4 88bd 009f 2abd 1180 8c3c
00000110: 0ac3 0bbc dcd0 9f3d 745c 353d f9f4 b63c
00000120: 182f 24bd 808c 36bc b92d 883d 5708 b3bb
00000130: 017a 08be 60eb 4fbb 2838 e53c 3b08 71bd
00000140: 6040 febc 4a53 04bd f5c2 043d a81a c33d
00000150: d622 b6bd fef6 a93d e374 143d cf26 0a3d
00000160: fe6b 91bd 9629 74bd ca90 a53d 55cb a33c
00000170: 2ec2 263c 692b 023b 17ce 883d 1816 ffbc
00000180: 8a75 8c3d 7619 44bd 316f b43c f4e0 063d
00000190: d7a5 9cbd bf18 4cbd 9859 173c c5ff ffbd
000001a0: f2a4 e9bb 3a84 db3a 1b8b b43d 2d98 343c
000001b0: 52e2 edbd 8c10 16bd 7185 e83d 24ca cfbc
000001c0: 14cc 0bbd dc00 843c e624 a33c cce3 90bd
000001d0: d254 db3d d9d7 643c 289b febc 1c45 a43d
000001e0: 8d27 4e3d 6f7a afbd a883 d1bc 006d 9c3d
000001f0: 15a0 683c 9fe6 54bd ab31 5abd 4244 b3bd
00000200: 4d25 803d d8ad 673d f9a8 3abe f671 04bd
00000210: 73f7 cebe 9111 f7bd 90c1 78bc 1b61 c5bc
00000220: d4fc 4fbd 000a 643c 26f5 9c3c 274e 0f3c
00000230: d605 fa3d 9b18 933c cd7b eabd a014 0f3d
00000240: 2bc5 c63c 1c4c 30bd 7fa7 aabe de4c 57bd
00000250: 8b0d d4bb d6e2 9ebd 7cc7 ee3c 87fa 7abd
00000260: ee18 f53d a73a 163e 4c95 803e 1521 e1bb
00000270: 7b3b 243e ceb3 20be eed2 783d 60d2 dfbb
00000280: 0ef3 0abd 4685 a73c be78 33bd 4020 d0bb
00000290: 0097 d93c 26b3 b93c 1e21 f4bd 3d8d 363d
000002a0: fd72 cbbd 0ccb 40bd 2809 36bd 5e18 8c3b
000002b0: a68f d63a 4000 e4bd 8eb8 6c3d b03b d03d
000002c0: ba24 ef3d c663 393e f54b 99be 144f 37bd
000002d0: 8577 8d3d c957 a5bd 8871 cf3c 51d2 d53d
000002e0: a6a1 69bb dda2 f1bd 7f80 673c b37e 3b3d
000002f0: 0a80 433c d670 b0bc 396d b23d 9892 7ebd
00000300: 171d 843d 449d 90bd d6c9 7fbd ffb8 a03d
00000310: a15f 87bc 48ba cfbc cf1b 3bbd 46c7 dbbd
00000320: cccf 763d d858 63bd bfe7 96bd 4703 3bbd
00000330: 5921 9f3c c01a b43d 1d87 c63d 6bb9 ea3b
00000340: 6778 f3bd 44a8 a13a 01fa d73d e5db b43d
00000350: 786d 1fbd ea9d 00be c3b0 e33c 9d7f 16bd
00000360: 34a7 323d 4e25 ce3b b2ba fb3b 17c0 343d
00000370: 2b7a 04bb 5ecf fcbb 46c9 9f3d 6cfd e93d
00000380: 9ac1 84bd 1700 d43d b6d1 36ba 1c89 06bd
00000390: 74c6 c0bd b993 15bc fc05 b63d ba98 b9bd
000003a0: e04f c2bd a045 cd3d 7571 82bd 9514 c83d
000003b0: e6c2 fa3c 0c01 7e3d b618 c4bb 5056 13bd
000003c0: f2e3 263c d98d 53bc b34d 0abd 2631 91bd
000003d0: d5d5 d8bd 12f8 03bd 39a5 263d 2b76 b7bd
000003e0: f082 293c e41b 133d b1ca 863d 3205 62bd
000003f0: 8967 d9b9 9644 f2bd e5ef c83c 3e98 ccbd

gc3_logvar.linear.bias f4 [32]
-0.0003470006 -0.0008955216 -1.0432987 -0.004569702 0.00020317902 -0.00080023543 -0.0006057561 -0.0019127163
-0.0014463292 -0.003539869 -0.005113821 -0.0011579003 -0.009228351 -0.00042239192 -0.0009102443 -0.0007086169
-0.00072141277 0.00025851434 -0.005125712 -0.001046418 -0.0028035506 -0.0028049683 -0.0008567187 -0.000120052966
0.0004486051 -0.000100653764 -0.00080788444 -0.0009677913 -0.00052250916 -0.0008917828 -0.000486971 -0.00014453367
00000000: a2ed b5b9 70c1 6aba d08a 85bf 70bd 95bb
00000010: 740c 5539 e4c6 51ba 9bcb 1eba 1cb4 faba
00000020: c192 bdba 26fd 67bb d791 a7bb b0c4 97ba
00000030: 8232 17bc 7c74 ddb9 769d 6eba 7ac2 39ba
00000040: 311d 3dba 3589 8739 97f5 a7bb f627 89ba
00000050: c6bb 37bb 8fd3 37bb 6b95 60ba f2c4 fbb8
00000060: c232 eb39 1416 d3b8 35c8 53ba 60b3 7dba
00000070: fff8 08ba 88c6 69ba 2450 ffb9 f68d 17b9

condition_encoder.0.weight f4 [64, 2]
-0.73610264 -0.36812797 -0.3759837 0.38306004 0.0355528 -0.50222 0.5698115 -0.32246056
-0.15968183 0.041962486 -0.6098164 -0.35397407 -0.26064676 -0.23904113 -0.2564973 0.45261437
-0.39641452 -0.599398 0.12652756 -0.06895839 -0.10188978 -0.14604175 0.48704296 -0.44847798
-0.63690645 -0.7347941 0.061120637 0.052889008 -0.1032565 -0.8513154 -0.68752456 -0.7938191
0.30278543 -0.059948184 -0.42287156 -0.7900402 0.18121275 -0.22840953 0.5342772 -0.7285031
-0.7392752 -0.16555403 0.47393137 0.4670846 0.48913315 0.20603676 0.3158453 -0.43477187
0.49503064 -0.50732744 0.4547158 0.2908976 -0.40956268 -0.053606328 -0.05887854 0.53392726
0.54108363 0.15161014 -0.44671908 0.10236004 0.5793436 -0.3746997 0.38582098 -0.043384157
0.20967522 0.06987066 0.35170275 -0.82440007 0.29203755 -0.6131952 -0.048251748 0.5529725
-0.6999217 -0.8035217 -0.4292263 -0.21536276 -0.21167177 -0.797624 -0.025684895 -0.38272318
-0.44844767 -0.24875036 0.17768185 -0.019886434 -0.46555477 0.47356024 0.1334117 -0.28953275
0.61206585 0.14253998 0.367706 0.49997228 -0.14599285 0.38012147 -0.1428907 0.34620154
-0.07672028 0.06471982 0.3560875 -0.39189312 0.44316489 -0.13860993 0.15965523 -0.7441979
-0.36693376 0.33106095 -0.49807784 0.008536937 0.62091225 -0.6716286 -0.007810235 0.11490351
0.39128467 -0.37331894 -0.73510605 -0.5514405 0.13782524 -0.59620416 -0.69462603 -0.23982826
0.1855318 -0.44340146 -0.27464488 0.38678998 -0.67560416 -0.98320055 -0.330714 0.36600927
00000000: 3971 3cbf 457b bcbe ef80 c0be 7220 c43e
00000010: d09f 113d 7d91 00bf 2bdf 113f 8d19 a5be
00000020: a283 23be dbe0 2b3d ed1c 1cbf 173c b5be
00000030: 7e73 85be 33c7 74be 9d53 83be 12bd e73e
00000040: d8f6 cabe 2672 19bf 7190 013e 0e3a 8dbd
00000050: 97ab d0bd f88b 15be b25d f93e e89e e5be
00000060: 4d0c 23bf 771b 3cbf a259 7a3d 25a2 583d
00000070: 2578 d3bd ceef 59bf 9c01 30bf bb37 4bbf
00000080: b106 9b3e 3a8c 75bd 9f82 d8be 1340 4abf
00000090: d68f 393e 30e4 69be 64c6 083f 2e7f 3abf
000000a0: 2441 3dbf ff86 29be 22a7 f23e b625 ef3e
000000b0: a96f fa3e 4dfb 523e 7ab6 a13e 6b9a debe
000000c0: a874 fd3e 36e0 01bf 82d0 e83e 88f0 943e
000000d0: 33b2 d1be 4f92 5bbd a02a 71bd 75af 083f
000000e0: 7584 0a3f b03f 1b3e 5db8 e4be 24a2 d13d
000000f0: dd4f 143f a4d8 bfbe 548a c53e 96b3 31bd
00000100: 1ab5 563e 5918 8f3d 6212 b43e e20b 53bf
00000110: f285 953e 5cfa 1cbf a0a3 45bd 9b8f 0d3f
00000120: 122e 33bf 99b3 4dbf 8dc3 dbbe 0e88 5cbe
00000130: 7cc0 58be 1631 4cbf 2169 d2bc 4bf4 c3be
00000140: ef9a e5be 6ab8 7ebe 3bf2 353e e0e8 a2bc
00000150: 325d eebe 7d76 f23e 149d 083e a33d 94be
00000160: 59b0 1c3f 00f6 113e f643 bc3e 5efc ff3e
00000170: 267f 15be 489f c23e f151 12be 5441 b13e
00000180: 861f 9dbd d38b 843d 1a51 b63e 37a6 c8be
00000190: 82e6 e23e c3ef 0dbe a97c 233e c183 3ebf
000001a0: bede bbbe d280 a93e 0f04 ffbe 82de 0b3c
000001b0: 1bf4 1e3f daef 2bbf 00ed ffbb 8852 eb3d
000001c0: 7756 c83e a923 bfbe e92f 3cbf 342b 0dbf
000001d0: 0f22 0d3e d6a0 18bf 03d3 31bf 8a95 75be
000001e0: 0cfc 3d3e 8405 e3be 419e 8cbe 5609 c63e
000001f0: 65f4 2cbf 08b3 7bbf 5853 a9be 9165 bb3e

condition_encoder.0.bias f4 [64]
-0.1498706 -0.47931966 -0.5016335 -0.16618443 0.5017482 0.2812794 -0.21365924 -0.61343217
-0.38014486 0.1272982 0.61589354 0.38208696 -0.08451123 0.38343802 0.07478521 0.12358044
0.34557453 -0.14502327 0.21359001 0.07955514 0.1759978 -0.15125358 0.46357483 -0.6370052
0.4973434 -0.58342963 -0.4853099 -0.4347922 -0.06827104 -0.025218787 -0.6876 0.38752502
0.1670864 0.7068403 -0.504624 -0.56860524 0.1927845 0.56583595 0.4974814 0.30059123
0.1429979 0.37042248 -0.28460872 -0.7052818 -0.58867735 -0.4522156 0.10067083 0.6298335
0.4430084 -0.46153453 0.20906296 0.63405573 0.04068162 -0.07992568 -0.38305417 -0.051385462
0.5322516 -0.1556187 -0.023386816 0.36599648 -0.2710651 -0.32667187 0.08385817 0.5357367
00000000: ae77 19be 6369 f5be 0e6b 00bf 402c 2abe
00000010: 9272 003f db03 903e 7dc9 5abe e409 1dbf
00000020: 59a2 c2be 765a 023e 33ab 1d3f e7a0 c33e
00000030: 3914 adbd fd51 c43e fd28 993d be17 fd3d
00000040: 25ef b03e fb80 14be 57b7 5a3e ceed a23d
00000050: c438 343e 38e2 1abe ae59 ed3e c612 23bf
00000060: cba3 fe3e a55b 15bf 8a7a f8be 159d debe
00000070: b0d1 8bbd a197 cebc 8e06 30bf ae69 c63e
00000080: b218 2b3e 7cf3 343f 0a2f 01bf 1d90 11bf
00000090: 4d69 453e a0da 103f e2b5 fe3e 18e7 993e
000000a0: 0b6e 123e 04a8 bd3e 3cb8 91be 598d 34bf
000000b0: 8fb3 16bf ce88 e7be 822c ce3d c53c 213f
000000c0: ffd1 e23e 414e ecbe 9a14 563e 7a51 223f
000000d0: c5a1 263d 13b0 a3bd ad1f c4be 9079 52bd
000000e0: a441 083f 825a 1fbe b595 bfbc e463 bb3e
000000f0: 0bc9 8abe 8941 a7be d5bd ab3d 0a26 093f

condition_encoder.2.weight f4 [64, 64]
0.04526049 -0.005034283 -0.09929767 0.07464163 -0.029796757 -0.10855181 -0.11270909 -0.05930662
-0.09452111 0.0030079358 0.05457016 -0.056634437 0.105231166 -0.057009347 -0.17218341 -0.22997521
-0.11167113 0.11736229 0.05435803 0.087369666 -0.07170623 0.042254075 -0.037365276 0.12372263
-0.13410874 -0.033941314 -0.14340322 0.012344286 -0.09731595 -0.056413073 0.028908 0.09756408
0.08683748 0.044749327 -0.030938223 -0.0037739873 -0.20053104 0.04256734 -0.015115258 0.064136155
-0.17930306 -0.06175261 -0.054668415 -0.09566079 -0.07431449 0.039490998 0.07263175 0.025357442
-0.07518154 0.055139616 0.10323985 -0.03633543 -0.043161333 -0.06703503 0.088362366 -0.028566688
-0.13414213 0.102933414 0.031952713 -0.10095371 -0.12303957 0.015680566 -0.2025992 -0.053410057
-0.050912157 0.10281211 0.066349864 0.099099725 0.015770206 -0.014131037 0.041227095 -0.00044377148
-0.0139734 0.03208738 -0.15194915 0.059500005 -0.036026716 -0.11057555 -0.013023002 -0.21174774
0.03577989 -0.14800808 -0.059945602 -0.13787761 0.03125076 0.030904204 0.08389285 0.03815061
-0.08986642 0.018795848 0.056051075 -0.09664124 -0.083387956 -0.020464465 -0.07809283 -0.044533614
0.10418181 0.034884676 -0.10134378 -0.06744929 0.0177711 -0.046721164 -0.09571712 -0.011724349
-0.07486586 0.015751807 0.020568512 0.0710745 0.06880987 0.043885127 0.025062144 -0.05958116
-0.14405066 -0.012034267 -0.10994471 -0.13616928 -0.12238074 -0.024778025 -0.092438996 0.021134526
0.023975603 0.05826785 -0.18476675 0.058122348 0.03719315 0.10143834 -0.097023234 -0.0059351833
-0.065076664 0.10457638 -0.0813577 0.09750269 0.13130508 0.054959584 -0.09090079 -0.100977555
-0.043129366 0.11775098 0.028442172 -0.015304 -0.105491936 0.027735913 0.1272835 0.09655166
0.03698334 -0.13024245 0.07601798 0.0151144285 -0.08136613 0.103971705 0.09122185 0.0009798408
-0.0063325823 0.11227259 0.14349099 0.020370841 0.116035685 0.021880338 0.059654027 0.0070958138
-0.0012830147 0.10328367 -0.054750174 -0.08928728 0.13294886 -0.0038717752 0.11741938 0.0036264071
-0.0385137 0.016089326 -0.033024658 0.02869165 -0.096437514 -0.105834305 0.016716823 0.13266696
-0.0589088 -0.06288044 0.019145962 0.11810525 0.10989218 -0.05984057 -0.0065530837 -0.09841493
0.14243568 0.033747677 -0.016276306 -0.088426046 0.070659444 -0.0704305 0.10797608 0.08090056
0.045319725 -0.06096846 0.08443177 0.08472392 -0.015830519 -0.11542361 0.023917742 -0.11228694
0.022182481 -0.1280502 -0.03932091 -0.11161506 0.12791905 -0.12595186 -0.13732359 -0.1403887
-0.054479707 0.11218558 0.068304725 0.11257849 -0.072601326 0.029346526 -0.008638441 0.06894037
0.03419264 0.0734956 0.09423957 0.10405868 0.006385982 0.10945852 -0.0702375 -0.046917953
-0.04788244 -0.06580549 0.007157773 -0.11760557 -0.12254253 -0.04279934 -0.00781439 0.059478056
-0.12504941 0.006031892 0.047253583 -0.06669669 0.021257222 -0.06551728 -0.017857168 -0.09494876
-0.061260026 -0.04944931 0.09458078 0.00086299784 -0.14244565 0.046784293 0.06816499 -0.054435194
-0.10070828 0.028931502 -0.015192361 -0.082777575 0.015354916 -0.09325877 -0.20038809 -0.101623245
00000000: 1063 393d a0f6 a4bb 945c cbbd b6dd 983d
00000010: 5418 f4bc 6950 debd 06d4 e6bd 80eb 72bd
00000020: 4994 c1bd ca20 453b f684 5f3d 83f9 67bd
00000030: 7083 d73d a282 69bd d950 30be 9f7e 6bbe
00000040: d5b3 e4bd a45b f03d 87a6 5e3d deee b23d
00000050: b7da 92bd 9c12 2d3d 550c 19bd 4a62 fd3d
00000060: cd53 09be 0c06 0bbd 4bd8 12be b03f 4a3c
00000070: 964d c7bd 6511 67bd 78d0 ec3c adcf c73d
00000080: d9d7 b13d 124b 373d 2872 fdbc 0055 77bb
00000090: 0258 4dbe 175b 2e3d fda5 77bc d159 833d
000000a0: 399b 37be 4ef0 7cbd fdeb 5fbd cee9 c3bd
000000b0: 3232 98bd 50c1 213d f4bf 943d 69ba cf3c
000000c0: c7f8 99bd 14da 613d 6a6f d33d 76d4 14bd
000000d0: f0c9 30bd a949 89bd 54f7 b43d b004 eabc
000000e0: 8e5c 09be c1ce d23d d9e0 023d d2c0 cebd
000000f0: 2cfc fbbd 8874 803c 2a76 4fbe 81c4 5abd
00000100: 4489 50bd 288f d23d 70e2 873d ccf4 ca3d
00000110: 8530 813c dd85 67bc bedd 283d 00aa e8b9
00000120: b0f0 64bc 0e6e 033d 8f98 1bbe 47b6 733d
00000130: c090 13bd 6f75 e2bd 6e5e 55bc 66d4 58be
00000140: ef8d 123d 6e8f 17be 8589 75bd ca2f 0dbe
00000150: cc00 003d d02a fd3c 04d0 ab3d d043 1c3d
00000160: e30b b8bd c0f9 993c d095 653d d8eb c5bd
00000170: 4ec7 aabd 18a5 a7bc 22ef 9fbd e168 36bd
00000180: 465d d53d 3ce3 0e3d 548d cfbd da22 8abd
00000190: b394 913c b15e 3fbd 5607 c4bd 7c17 40bc
000001a0: 4653 99bd ef09 813c 4c7f a83c 828f 913d
000001b0: 30ec 8c3d e4c0 333d 204f cd3c 600b 74bd
000001c0: 0482 13be 602b 45bc b12a e1bd f66f 0bbe
000001d0: c1a2 fabd 49fb cabc a850 bdbd 5022 ad3c
000001e0: 7c68 c43c 45aa 6e3d 7f33 3dbe b311 6e3d
000001f0: d857 183d e8be cf3d 1eb4 c6bd ed7b c2bb
00000200: ea46 85bd 242c d63d de9e a6bd 7eaf c73d
00000210: d774 063e 4d1d 613d 322a babd 52cd cebd
00000220: 6ba8 30bd 6d27 f13d 8fff e83c a1bd 7abc
00000230: 280c d8bd 6d36 e33c 9b56 023e e0bc c53d
00000240: d87b 173d 475e 05be 51af 9b3d 82a2 773c
00000250: 49a3 a6bd 1eef d43d 85d2 ba3d 006e 803a
00000260: 8d81 cfbb 2cef e53d 4def 123e c0e0 a63c
00000270: 1ea4 ed3d 653e b33c c857 743d 0084 e83b
00000280: d42a a8ba 6486 d33d b841 60bd 40dc b6bd
00000290: bf23 083e 9cbd 7dbb 9279 f03d 04a9 6d3b
000002a0: 8bc0 1dbd c3cd 833c dd44 07bd c00a eb3c
000002b0: 0881 c5bd a8bf d8bd b8f1 883c d9d9 073e
000002c0: 5b4a 71bd 76c7 80bd fed7 9c3c 2ae1 f13d
000002d0: 270f e13d 631b 75bd 40bb d6bb c48d c9bd
000002e0: a9da 113e 013b 0a3d e355 85bc b718 b5bd
000002f0: e6b5 903d de3d 90bd 9022 dd3d 31af a53d
00000300: 2da1 393d 10ba 79bd 90ea ac3d bc83 ad3d
00000310: 01af 81bc 3763 ecbd 24ef c33c b2f6 e5bd
00000320: 09b8 b53c 971f 03be f60e 21bd 7096 e4bd
00000330: 36fd 023e 86f9 00be 8e9e 0cbe 0ec2 0fbe
00000340: 1d26 5fbd 8ec1 e53d 59e3 8b3d 8d8f e63d
00000350: 01b0 94bd 2068 f03c 3f88 0dbc 9c30 8d3d
00000360: 950d 0c3d dc84 963d ad00 c13d b81c d53d
00000370: 8041 d13b ca2b e03d aed8 8fbd 0a2d 40bd
00000380: 6120 44bd 07c5 86bd c08b ea3b 30db f0bd
00000390: 94f7 fabd 5c4e 2fbd ed07 00bc 439f 733d
000003a0: f40c 00be 2da7 c53b f98c 413d 4698 88bd
000003b0: a023 ae3c ec2d 86bd 3249 92bc 7f74 c2bd
000003c0: cbeb 7abd 5c8b 4abd 91b3 c13d ce3a 623a
000003d0: 46dd 11be e3a0 3f3d 169a 8b3d 70f7 5ebd
000003e0: 2540 cebd c201 ed3c 61e9 78bc 4a87 a9bd
000003f0: 3093 7b3c 74fe bebd 8932 4dbe d91f d0bd

condition_encoder.2.bias f4 [64]
-0.114261314 -0.0818497 0.051439334 -0.10919282 0.056162484 -0.11175113 0.09192108 -0.0041368725
-0.015877075 0.030854935 0.0148622235 0.037637226 0.006197642 -0.085338205 0.029545754 -0.042966336
0.04005419 -0.007532092 0.040299367 -0.046905212 0.023722373 -0.02487143 -0.022899222 -0.021794599
0.048779756 -0.018977288 0.10423581 -0.074158736 -0.02165253 0.09296876 -0.02599977 0.110956125
-0.0549824 0.09117885 0.0020242364 -0.03909822 -0.1254879 0.0965027 0.01057266 -0.045594413
-0.04082083 -0.02345428 -0.04725558 -0.0051271794 -0.12720643 -0.038643584 0.13090087 0.06491605
0.09670177 -0.008519637 -0.06780602 0.08436927 0.11346288 0.03769064 0.06421614 -0.0856828
-0.13315834 0.0008260254 -0.009393222 0.06955984 -0.004807691 -0.090786114 0.07235016 0.034142096
00000000: d601 eabd d1a0 a7bd 0db2 523d 7ca0 dfbd
00000010: a20a 663d c7dd e4bd 1f41 bc3d 9a8e 87bb
00000020: a410 82bc 7dc3 fc3c af80 733c 7e29 1a3d
00000030: 9715 cb3b ccc5 aebd f009 f23c 78fd 2fbd
00000040: dd0f 243d c4cf f6bb f310 253d ae1f 40bd
00000050: 6c55 c23c 2bbf cbbc 2697 bbbc 968a b2bc
00000060: 48cd 473d 4276 9bbc 9679 d53d 89e0 97bd
00000070: a660 b1bc 6866 be3d 78fd d4bc f73c e33d
00000080: 3a35 61bd fabb ba3d 0da9 043b 7525 20bd
00000090: e67f 00be 35a3 c53d f338 2d3c 35c1 3abd
000000a0: be33 27bd 3123 c0bc 118f 41bd e601 a8bb
000000b0: 6742 02be bc48 1ebd e10a 063e b5f2 843d
000000c0: 940b c63d f395 0bbc e2dd 8abd ccc9 ac3d
000000d0: 3a5f e83d 8061 1a3d c083 833d 777a afbd
000000e0: a95a 08be a089 583a 07e6 19bc 6475 8e3d
000000f0: d689 9dbb 12ee b9bd 522c 943d 95d8 0b3d

decoder.0.weight f4 [64, 96]
-0.013894316 -0.08078654 -0.49230453 0.035377238 0.116139755 0.012693156 0.06361767 0.044197656
-0.090369344 -0.009092686 -0.037514765 -0.045591317 0.03517192 0.07073815 -0.048244443 -0.045640483
0.011200429 0.044824943 -0.031777065 0.026739968 0.069558255 0.09302827 -0.02475506 -0.018874196
-0.04514053 -0.023262717 -0.06887467 -0.05721835 0.070966154 -0.03906825 0.10014779 0.04945528
0.010737917 0.016149286 -0.07152806 -0.06951826 -0.046309676 -0.120139904 0.062304784 0.012017959
0.07405287 -0.008047032 -0.045271304 -0.1081938 0.030743716 -0.07657318 0.04492693 0.09287514
0.07625231 -0.039402764 -0.086399294 -0.08006859 0.053657476 0.044342935 0.025744138 -0.1253634
0.023850549 0.102029495 -0.013992667 -0.031293653 -0.020057628 -0.0119543895 -0.016734717 0.05007922
-0.03475351 0.111459576 0.044922426 0.04930512 -0.11053191 -0.032521416 0.027362423 -0.085635185
0.042668268 0.04794172 -0.038521316 0.0002846219 -0.028969355 0.05529437 0.0014322721 0.10725416
0.106717534 -0.05582142 0.040595237 -0.013049385 0.114525504 0.030038355 0.00803077 0.064221576
-0.10515247 0.011679734 -0.00046758706 -0.061466273 0.11216885 -0.017265217 0.112626866 -0.0057499018
0.021260623 -0.051393233 -0.5798949 -0.045979854 0.02485817 0.107885726 0.0029632512 0.032305643
0.120425336 -0.051440485 -0.07780299 -0.014425602 0.012603985 0.05735905 -0.043051146 -0.050022386
-0.039930396 -0.057751864 -0.08971444 0.10875858 -0.00036176073 -0.030483117 -0.0151274605 0.02068024
0.08864948 0.07482077 0.057882793 -0.05357876 -0.08538008 -0.03015783 -0.08245279 0.052186478
-0.07095543 0.005546156 0.08866931 -0.019839907 0.092834786 0.04023206 0.08597806 0.011883207
-0.13201642 0.03255856 0.0469855 0.03689806 0.06740766 0.034111008 0.12506711 -0.009203623
-0.021386415 0.050047077 -0.009092021 0.010347082 0.020755742 0.010801085 0.067486316 -0.123514146
0.07350507 0.03740674 0.03521333 -0.110630654 -0.068957984 0.0012561732 -0.015630728 0.004041283
0.010370048 -0.029918943 0.044190746 -0.05219904 -0.021100547 -0.019095326 -0.017298091 0.059224147
0.02416631 0.067847535 0.007569166 -0.06690508 -0.12842572 0.015453167 0.046109855 0.07559432
-0.03723472 -0.1300268 -0.047592733 -0.015344999 -0.0048311967 -0.057680324 0.07631689 -0.04227306
0.055017535 -0.0154709425 -0.1409559 0.1320317 -0.017703256 -0.038827337 0.036083702 0.01972794
-0.009260448 -0.053046726 -0.044337682 -0.1064189 0.09434433 -0.12237222 -0.00057869224 0.052420046
-0.058865264 -0.048088044 -0.09652278 -0.10186042 0.0652878 -0.00025200934 0.004270143 0.042274404
-0.024585787 -0.23619124 -0.13734618 0.06362164 0.05805366 0.008340792 0.03990263 0.07272254
-0.086605996 -0.109679855 -0.0609951 0.002514029 0.108256295 -0.052182104 0.03174709 -0.012750723
-0.012311978 -0.11812216 -0.0150317745 -0.10710557 0.049958378 -0.015387582 -0.070648186 -0.0854834
-0.019031607 0.0012877209 -0.048618115 -0.05535137 -0.060173202 -0.041238602 0.0094902 0.04193791
-0.018573843 -0.040266685 0.05971995 -0.05305961 0.04151515 0.075622395 0.013717715 -0.09589516
-0.12039741 0.05615172 0.015614448 0.031120488 -0.02080766 0.059321992 0.09792007 0.0124966055
00000000: fca4 63bc 6a73 a5bd 570f fcbe b9e7 103d
00000010: aeda ed3d f4f6 4f3c fb49 823d 9a08 353d
00000020: 9013 b9bd 7df9 14bc 15a9 19bd f6bd 3abd
00000030: 6e10 103d 2adf 903d f79b 45bd 84f1 3abd
00000040: 0182 373c 5c9a 373d ab28 02bd c70d db3c
00000050: 8f74 8e3d 9b85 be3d 20cb cabc 0f9e 9abc
00000060: 47e5 38bd 7491 bebc 2a0e 8dbd ca5d 6abd
00000070: b456 913d 0806 20bd 491a cd3d 9f91 4a3d
00000080: 17ee 2f3c 824b 843c 4e7d 92bd 975f 8ebd
00000090: 37af 3dbd e90b f6bd 4d33 7f3d f9e6 443c
000000a0: 08a9 973d b3d7 03bc 676e 39bd b694 ddbd
000000b0: 3fda fb3c 66d2 9cbd 4d05 383d 5235 be3d
000000c0: 2c2a 9c3d cb64 21bd 1df2 b0bd 00fb a3bd
000000d0: f1c7 5b3d f0a0 353d 5fe5 d23c 435f 00be
000000e0: 3a62 c33c d7f4 d03d 8041 65bc c62d 00bd
000000f0: e54f a4bc 58dc 43bc 3f17 89bc de1f 4d3d
00000100: b259 0ebd eb44 e43d 9400 383d 2af4 493d
00000110: 8e5e e2bd 2d35 05bd 2927 e03c 8061 afbd
00000120: ecc4 2e3d 895e 443d 87c8 1dbd 4e39 9539
00000130: 2451 edbc 597c 623d 14bb bb3a 12a8 db3d
00000140: b98e da3d 00a5 64bd 3147 263d 16cd 55bc
00000150: 598c ea3d ff12 f63c 7e93 033c 9a86 833d
00000160: 2e5a d7bd 5b5c 3f3c 7926 f5b9 0fc4 7bbd
00000170: c8b8 e53d c96f 8dbc eaa8 e63d ac69 bcbb
00000180: c22a ae3c b681 52bd fe73 14bf 5f55 3cbd
00000190: 5ca3 cb3c 31f3 dc3d 1b33 423b ec52 043d
000001a0: 8fa1 f63d 42b3 52bd 2d57 9fbd 5c59 6cbc
000001b0: f280 4e3c 53f1 6a3d 6656 30bd 46e4 4cbd
000001c0: 0e8e 23bd 388d 6cbd 34bc b7bd d2bc de3d
000001d0: b4aa bdb9 bbb7 f9bc 2bd9 77bc 9b69 a93c
000001e0: dc8d b53d a23b 993d 8216 6d3d 6775 5bbd
000001f0: c0db aebd 8e0d f7bc 02dd a8bd 7dc1 553d
00000200: 1551 91bd 87bc b53b 4198 b53d 4d87 a2bc
00000210: 2a20 be3d 5fca 243d 4415 b03d c8b1 423c
00000220: 502f 07be 205c 053d de73 403d 6c22 173d
00000230: 070d 8a3d fcb7 0b3d 9811 003e cbca 16bc
00000240: 9032 afbc 2afe 4c3d b3f6 14bc cf86 293c
00000250: f207 aa3c 09f7 303c 4436 8a3d fcf4 fcbd
00000260: d389 963d cf37 193d da3b 103d 5392 e2bd
00000270: d839 8dbd 2ea6 a43a 030c 80bc bd6c 843b
00000280: 22e7 293c 9218 f5bc 5b01 353d a9ce 55bd
00000290: 0edb acbc cd6d 9cbc bab4 8dbc 0595 723d
000002a0: 6df8 c53c a6f3 8a3d c406 f83b 8805 89bd
000002b0: 0882 03be 482f 7d3c b0dd 3c3d 32d1 9a3d
000002c0: 6f83 18bd bf25 05be 99f0 42bd 9769 7bbc
000002d0: 044f 9ebb 3442 6cbd 084c 9c3d 8426 2dbd
000002e0: 115a 613d d679 7dbc be56 10be 5133 073e
000002f0: 6b06 91bc 6a09 1fbd 81cc 133d 7d9c a13c
00000300: 22b9 17bc 8647 59bd 6e9b 35bd 27f2 d9bd
00000310: 9a37 c13d 499e fabd 61b3 17ba 67b6 563d
00000320: b41c 71bd f8f7 44bd bcad c5bd 329c d0bd
00000330: 9cb5 853d 1f20 84b9 8eec 8b3b ed27 2d3d
00000340: 2268 c9bc 1edc 71be 7aa4 0cbe 104c 823d
00000350: adc9 6d3d d1a7 083c f170 233d 8eef 943d
00000360: 7c5e b1bd d59f e0bd ffd5 79bd 68c2 243b
00000370: 7ab5 dd3d e7bc 55bd 3d09 023d 69e8 50bc
00000380: 2eb8 49bc 08ea f1bd d547 76bc 2a5a dbbd
00000390: 28a1 4c3d 321c 7cbc ffaf 90bd ec11 afbd
000003a0: 2ce8 9bbc bec8 a83a ca23 47bd 1eb8 62bd
000003b0: 2d78 76bd cfe9 28bd c97c 1b3c 16c7 2b3d
000003c0: 2c28 98bc aeee 24bd e89c 743d 0955 59bd
000003d0: ca0b 2a3d eadf 9a3d 44c0 603c af64 c4bd
000003e0: eb92 f6bd 59ff 653d bed3 7f3c 65f0 fe3c
000003f0: d374 aabc 9efb 723d 518a c83d 90be 4c3c
