models/final_model.pt (torch, 365066 bytes, 78 tensors)

gc1.linear.weight f4 [64, 5]
0	0x3ea5dc3f	0.32394597
1	0x3ec07537	0.37589428
2	0xbda6277f	-0.08113002
3	0x3eb9dbaf	0.36300418
4	0xbda46d10	-0.080286145
5	0x3df4d456	0.11954562
6	0xbe634124	-0.22192818
7	0x3e5eac68	0.21745455
8	0x3ec468cb	0.383612
9	0xbe6b09dc	-0.2295298
10	0x3eb6b657	0.3568599
11	0x3d874357	0.06604641
12	0x3ea1ec7c	0.31625736
13	0xbc27b84a	-0.010236809
14	0x3e4f64be	0.20253274
15	0xbdb54208	-0.08850485
16	0x3ea17d12	0.31540734
17	0xbbe4f139	-0.006986764
18	0xbdf12e7f	-0.117764466
19	0x3db84f91	0.08999551
20	0xbe53d629	-0.20687164
21	0x3d41bf19	0.047301386
22	0xbe38aa54	-0.18033725
23	0x3ec49145	0.38392082
24	0xbf08c7e8	-0.5343003
25	0xbe531e40	-0.20617008
26	0xbe015006	-0.12628183
27	0xbe89ace6	-0.26889724
28	0x3d2ce3c8	0.042209417
29	0xbee226f7	-0.44170353
30	0x3eb8c38f	0.360867
31	0xbed17f94	-0.40917647
32	0x3e85cd7e	0.2613334
33	0x3d321916	0.043480955
34	0xbe16bc8f	-0.14720367
35	0x3e4931c3	0.19647889
36	0x3d11fe08	0.035642654
37	0x3ed807c0	0.42193413
38	0xbb1427bf	-0.0022606698
39	0xbdb6c185	-0.0892363
40	0x3dc6e6e1	0.097120054
41	0xbe03e2d1	-0.12879492
42	0x3e25fcca	0.16209713
43	0x3e9b9a91	0.30391362
44	0x3e7d38ac	0.2472865
45	0xbe02784f	-0.12741207
46	0x3e7c4a3e	0.24637696
47	0xbca90d3b	-0.020636192
48	0x3e8c9fb0	0.27465582
49	0xbe93b98e	-0.28852504
50	0xbf0f0787	-0.5587086
51	0xbe1568f5	-0.14590819
52	0xbe2cf767	-0.16891252
53	0x3e93ad6a	0.28843242
54	0x3e0e763b	0.13912289
55	0x3e1873d5	0.14887936
56	0x3dbdb070	0.092621684
57	0xbe10e0ce	-0.14148256
58	0x3ea0aab5	0.3138024
59	0xbeb14b76	-0.34627885
60	0x3c7d28c2	0.015451612
61	0xbe77a088	-0.24182332
62	0x3e20eafa	0.15714636
63	0xbe1db570	-0.15401244
64	0x3e5afc3b	0.21385281
65	0xbdc53ddb	-0.096309386
66	0x3ed2482e	0.41070694
67	0xbe41b13c	-0.18915266
68	0xbe23f870	-0.1601274
69	0xbe5b3c39	-0.21409692
70	0x3ebcb858	0.36859393
71	0x3de9956d	0.11405454
72	0x3ecd9475	0.40152326
73	0xbe8b09f9	-0.27156046
74	0xbeb8b53b	-0.36075768
75	0xbebdd434	-0.3707596
76	0xbead6116	-0.33863133
77	0x3dfcd878	0.12345976
78	0x3e07ae5b	0.13250105
79	0x3ea865c2	0.32890135
80	0xbe9597dd	-0.29217425
81	0xbe97d003	-0.29650888
82	0x3e9355d2	0.28776413
83	0xbe2d57cf	-0.16928028
84	0x3e8c2c34	0.27377474
85	0xbdd3c2f5	-0.103399195
86	0x3e6e8276	0.23291954
87	0xbed5a221	-0.41725257
88	0xbe58032a	-0.21094957
89	0x3de3fba9	0.11131985
90	0x3bd388bb	0.0064555085
91	0xbdba5e9b	-0.09100076
92	0x3eac7416	0.33682317
93	0x3e66d24a	0.22541156
94	0xbea92373	-0.33034858
95	0xbe89affd	-0.2689208
96	0x3ec14e2f	0.37754962
97	0xbe5d3e09	-0.21605696
98	0xbdf410c8	-0.11917263
99	0xbefe7163	-0.49695882
100	0xbe7f0ae3	-0.24906497
101	0x3df81db1	0.12115038
102	0xbdc1e27f	-0.09467029
103	0xbe2aae3c	-0.16668028
104	0x3d1281ce	0.035768323
105	0xbe9c6850	-0.30548334
106	0xbec2429e	-0.3794145
107	0xbe7c2c95	-0.24626382
108	0xbec86677	-0.39140674
109	0xbe91cbca	-0.2847579
110	0x3ed5d16b	0.41761336
111	0x3d9cd685	0.07658104
112	0x3dcf8ad7	0.101339035
113	0xbeb5af1c	-0.3548516
114	0xbebd5fa2	-0.36987025
115	0xbe186e24	-0.14885765
116	0x3d8f3820	0.06993127
117	0xbec97a82	-0.3935128
118	0xbe455120	-0.19269228
119	0xbe891444	-0.26773274
120	0x3aa27100	0.0012393296
121	0xbe2a6748	-0.16640961
122	0xbcfddec0	-0.030990005
123	0xbe9b28be	-0.3030452
124	0xbe9d2a8c	-0.30696523
125	0xbed1fa2d	-0.4101118
126	0xbdfb23c7	-0.12262683
127	0xbeb4b96c	-0.35297716
128	0x3ed184f5	0.4092175
129	0xbe94ee0c	-0.29087865
130	0x3eb56b3f	0.35433385
131	0x3df90f90	0.121611714
132	0xbf015549	-0.5052076
133	0x3e8f7c3c	0.2802447
134	0xbe0e219f	-0.13880013
135	0xbe2f8afc	-0.17142862
136	0xbebe1064	-0.3712188
137	0xbee3a2e5	-0.44460216
138	0x3e59c5ce	0.21266863
139	0xbdc81240	-0.09769106
140	0x3e53d369	0.20686115
141	0xbea4c43d	-0.32180968
142	0x3ed3793f	0.4130344
143	0xbee7badd	-0.45259753
144	0x3c742a9a	0.014902735
145	0x3dccd356	0.10001247
146	0x3e48e985	0.1962033
147	0x3ea42073	0.32056007
148	0x3ec7ab10	0.38997698
149	0xbecd2863	-0.40069875
150	0x3dd08ded	0.1018332
151	0xbe62a4ad	-0.22133131
152	0xbd9625d2	-0.073314324
153	0xbe86fa31	-0.26362756
154	0x3ebcf216	0.36903447
155	0xbe2cbe24	-0.16869408
156	0x3e83aa19	0.25715712
157	0x3e412b83	0.18864255
158	0x3dcdd93c	0.100512
159	0xbe6d867b	-0.23195831
160	0x3ebb482a	0.36578494
161	0x3da9c6e7	0.08289891
162	0x3d113179	0.03544757
163	0xbec7fdb1	-0.3906074
164	0x3e293cb5	0.16527064
165	0xbd6b7b99	-0.05749092
166	0xbe4d9536	-0.2007645
167	0x3eae7045	0.3407003
168	0xb94f0e57	-0.000197464
169	0xbeaa7bc7	-0.3329756
170	0xbd88ac4c	-0.06673488
171	0x3dc23ab6	0.094838545
172	0x3ed702c3	0.41994295
173	0xbe0d40a9	-0.13794197
174	0xbe06a157	-0.13147484
175	0xbe01b911	-0.12668253
176	0xbe82399a	-0.25434572
177	0x3e76645f	0.24061726
178	0x3ee04238	0.4380052
179	0xbe8a2033	-0.2697769
180	0x3ce06a62	0.027394477
181	0x3e646af5	0.22306426
182	0xbb1a3de5	-0.0023535427
183	0xbcaf53c1	-0.021402242
184	0x3e6744d1	0.22584845
185	0x3e69493d	0.22781844
186	0x3e239d6e	0.15978023
187	0xbce19c42	-0.02754033
188	0xbdd39b5d	-0.103323676
189	0x3d6e4e56	0.058180176
190	0xbe0c2fbc	-0.13690084
191	0xbe2e5e6e	-0.1702821
192	0x3e95779a	0.2919281
193	0x3ea86bc6	0.32894725
194	0x3bb97b97	0.005660485
195	0xbdff5e15	-0.124691166
196	0xbc94827e	-0.01812863
197	0x3b89cf8b	0.0042056493
198	0x3cce5362	0.025186244
199	0x3dd016d7	0.10160606
200	0xbe947e89	-0.2900279
201	0xbdb44845	-0.08802847
202	0x3ee60972	0.4492908
203	0x3de47a0f	0.11156093
204	0x3db6c62c	0.08924517
205	0xbe2cc1e3	-0.16870837
206	0xbe2685a4	-0.16261917
207	0xbecd1b54	-0.40059912
208	0xbdc06a01	-0.09395219
209	0x3e505baf	0.20347475
210	0x3e6ed47a	0.23323241
211	0x3e5e9a64	0.21738583
212	0xbed80436	-0.42190713
213	0xbe6d7712	-0.23189953
214	0xbd2b8e71	-0.04188389
215	0x3ece7b1f	0.4032831
216	0x3d2e482f	0.04254931
217	0xbe6782bf	-0.2260847
218	0x3e22d374	0.15900975
219	0xbe6493cb	-0.22322004
220	0xbea8b115	-0.32947603
221	0x3e98c929	0.29840973
222	0xbe92876b	-0.2861894
223	0xbd2ab93e	-0.041680567
224	0xbf0bcfe1	-0.54614073
225	0x3e85f74c	0.26165235
226	0x3e9d1836	0.30682534
227	0x3e426d71	0.18987061
228	0xbeb06e3e	-0.34459108
229	0xbed7aa8f	-0.42122313
230	0xbec51937	-0.384958
231	0x3e9d7069	0.30749825
232	0x3e495e7c	0.19664949
233	0x3e92b203	0.28651437
234	0x3e589bb5	0.21153148
235	0x3dc5a4c1	0.09650565
236	0xbc9a336c	-0.018823348
237	0xbeae22b8	-0.34010863
238	0xbec42d92	-0.38316017
239	0xbed62b80	-0.41830063
240	0x3e9d3606	0.3070528
241	0xbe139ae9	-0.14414562
242	0xbe438a61	-0.19095756
243	0xbe7ac256	-0.24488196
244	0x3d9f7949	0.07786805
245	0xbea244a5	-0.31692997
246	0xbe9d7604	-0.307541
247	0x3daa27e1	0.083083875
248	0xbe7836a6	-0.24239597
249	0x3e81e300	0.253685
250	0xbd1ad2bf	-0.03779864
251	0xbe491a55	-0.19638951
252	0xbbb4fcd8	-0.0055233054
253	0xbe1687ca	-0.14700237
254	0xbd78e6ad	-0.060766865
255	0xbea2adfd	-0.31773368

gc1.linear.bias f4 [64]
0	0xbea15fb0	-0.31518316
1	0xbddc5c57	-0.107598
2	0x3ea2b248	0.31776643
3	0x3e4d7d42	0.20067313
4	0xbe653a48	-0.22385514
5	0xbeb79c3d	-0.35861388
6	0xbebaca51	-0.3648248
7	0xbef6a836	-0.4817521
8	0xbeba4ec1	-0.3638821
9	0xbe18c3f1	-0.14918496
10	0x3eb15f65	0.34643093
11	0x3d401f5d	0.04690491
12	0xbe910cbf	-0.28330037
13	0xbeafaa50	-0.34309626
14	0x3e5e460d	0.2170641
15	0xbeb6b4fa	-0.3568495
16	0xbd36aca5	-0.04459824
17	0x3e4a699c	0.1976685
18	0xbe7795fd	-0.2417831
19	0xbdb229e7	-0.086993985
20	0xbd6dec46	-0.058086656
21	0xbdd8af64	-0.10580328
22	0xbe8d10ce	-0.27551883
23	0xbecc1d9a	-0.39866334
24	0xbeb9179c	-0.36150825
25	0xbe6559e4	-0.22397572
26	0x3ed3556e	0.41276115
27	0xbe06721e	-0.1312947
28	0xbe624e96	-0.2210029
29	0x3db8efea	0.09030135
30	0x3dd557c4	0.104171306
31	0x3e82e5d7	0.2556598
32	0x3ea804c5	0.3281614
33	0x3ea91e55	0.33030954
34	0xbeb98173	-0.36231574
35	0x3df4cf6a	0.119536236
36	0x3e891ad8	0.26778293
37	0xbd863839	-0.06553692
38	0xbe8b920e	-0.27259868
39	0x3eca9fd7	0.39575073
40	0xbe1b54ba	-0.1516904
41	0xbe6f87ce	-0.23391649
42	0xbec65c0d	-0.38742104
43	0xbcc035c4	-0.023463137
44	0x3e226e10	0.15862298
45	0x3d5e971f	0.05434334
46	0x3d538e58	0.05164942
47	0xbeb65816	-0.3561408
48	0xbe72701c	-0.23675579
49	0xba61b2e0	-0.00086097233
50	0x3f0dd43b	0.55401963
51	0x3e5e55b0	0.21712375
52	0xbe8db9a9	-0.2768071
53	0xbd127aa1	-0.03576148
54	0xbec2abb2	-0.38021618
55	0xbe9e2330	-0.3088622
56	0x3e9c5fff	0.3054199
57	0x3eb883e2	0.3603812
58	0x3ee2f9a2	0.4433108
59	0xbed238ca	-0.41058952
60	0x3e8a288e	0.26984066
61	0xbeab8428	-0.33499265
62	0x3e0dc04f	0.13842891
63	0x3eb8206a	0.3596223

gc2.linear.weight f4 [64, 64]
0	0xbb2eba80	-0.0026661456
1	0x3db7270e	0.08942996
2	0xbdf20d91	-0.11818994
3	0xbd65a0ec	-0.05606167
4	0x3d8aa588	0.06769854
5	0xbcdf18c0	-0.027233481
6	0xbd583c10	-0.052791655
7	0xbd9c5548	-0.076334536
8	0x3d9d1c95	0.07671467
9	0x3d5a2815	0.05326088
10	0x3c3b2a05	0.011423592
11	0xbd978300	-0.07398033
12	0xbe2167cf	-0.15762256
13	0x3c84e7f3	0.016223883
14	0x3cc58841	0.024112822
15	0xbda35719	-0.07975597
16	0xbd87ccce	-0.0663086
17	0x3d9f358f	0.07773887
18	0xb9b24076	-0.00033998833
19	0x3b9ae855	0.004727403
20	0xbd194fd6	-0.037429653
21	0xbde7d4ba	-0.11319871
22	0xbe02552a	-0.127278
23	0xbd74be64	-0.059751883
24	0xbd82215a	-0.063540176
25	0x3cc6820c	0.024231933
26	0xbd3f0c92	-0.046642847
27	0xbdbb5f2b	-0.09149011
28	0x3e47e126	0.19519481
29	0x3cf59788	0.029979482
30	0x3da1b9d8	0.07896775
31	0xbd976e17	-0.07394045
32	0xbd7bd857	-0.061485615
33	0x3cfd94ab	0.03095468
34	0xbb8622aa	-0.0040934877
35	0xbd9d533c	-0.07681891
36	0xbc821f53	-0.015884077
37	0xbd5bfcc9	-0.05370787
38	0xbdd1e5b7	-0.10248893
39	0x3d80bba5	0.0628579
40	0x3da88333	0.08228149
41	0x3c188ce0	0.009310931
42	0xbc86a25d	-0.016434843
43	0xbdee34d9	-0.11631174
44	0xbd497391	-0.04918248
45	0x3cc766c7	0.024341
46	0x3d4fa872	0.05069775
47	0xbc817398	-0.01580219
48	0xbd4a6bb0	-0.049419105
49	0x3d3504c7	0.04419401
50	0xbdd54874	-0.1041421
51	0x3d926b54	0.071493775
52	0xbdba5433	-0.09098091
53	0x3c89a5aa	0.016802628
54	0xbd604fb3	-0.054763507
55	0xbca59960	-0.020214736
56	0xbd1a99e8	-0.037744433
57	0x3d76f14a	0.060288705
58	0xbcae7c42	-0.021299485
59	0x3dc7d55e	0.097574934
60	0x3dcc3578	0.09971136
61	0xbdf64a58	-0.12025899
62	0xbdca8f75	-0.098906435
63	0x3db78f0b	0.0896283
64	0x3dc89aec	0.09795174
65	0xbdc377d6	-0.09544341
66	0xbc1e5130	-0.009662911
67	0xbdfc72c6	-0.12326579
68	0xbdd18fb6	-0.10232489
69	0x3cc5c728	0.024142817
70	0x3d0835b0	0.033254325
71	0x3cd91190	0.026497632
72	0xbd0b592c	-0.034020588
73	0x3dec2e0e	0.11532222
74	0x3c9268d0	0.017872244
75	0xbd970fcc	-0.0737606
76	0xbbe7e3e0	-0.0070767254
77	0x3cf5e8a0	0.03001815
78	0x3d334c74	0.043774083
79	0xbdb50340	-0.088385105
80	0x3d3fe46c	0.0468487
81	0xbd82c924	-0.06386021
82	0xbdd4b882	-0.103867546
83	0xbd8bd440	-0.06827593
84	0x3df6e388	0.12055117
85	0x3ddad7f6	0.106857225
86	0x3de53e78	0.111935556
87	0x3d96465e	0.0733764
88	0x3dc16524	0.09443119
89	0xbc890fe8	-0.016731218
90	0xbd8cdbbc	-0.068778485
91	0x3d7fd2fc	0.06245707
92	0xbd84a7a0	-0.064772844
93	0xbdacc402	-0.08435823
94	0xbd237fc0	-0.039916754
95	0x3cd6e558	0.026232406
96	0x3d83c9b6	0.06434958
97	0xbd46dd8c	-0.048551127
98	0xbd96ac48	-0.07357079
99	0x3c8a2168	0.016861632
100	0xbd96e518	-0.07367915
101	0xbda6abf6	-0.08138268
102	0x3d8570c4	0.06515649
103	0xbcac0428	-0.020998076
104	0x3de9edd0	0.11422312
105	0x3df90848	0.12159783
106	0x3d19245c	0.03738819
107	0x3d303570	0.043019712
108	0x3cebcf80	0.028785467
109	0x3b004b40	0.0019576102
110	0xbc14f4c0	-0.009091556
111	0x3ae12f00	0.0017180145
112	0x3d3f3188	0.046678096
113	0x3dee0576	0.11622135
114	0xbd04b080	-0.032394886
115	0xbd586e34	-0.052839473
116	0xbcf7fa10	-0.030270606
117	0xbd775c10	-0.060390532
118	0x3cae1ea0	0.021254838
119	0x3dbf173e	0.09330605
120	0x3dc82fac	0.09774718
121	0x3d6b1280	0.05739069
122	0xbdbc6602	-0.09199144
123	0xbd89657c	-0.0670881
124	0xbce0fc08	-0.027463928
125	0xbcbcbf78	-0.023040518
126	0x3c287180	0.010280967
127	0xbdeb002e	-0.11474644
128	0x3d0b4852	0.034004517
129	0xbd07d233	-0.033159446
130	0xbd9d6543	-0.0768533
131	0xbdca2c1e	-0.09871696
132	0x3ddd464a	0.10804422
133	0xbdf26aa6	-0.11836748
134	0x3d609e02	0.054838188
135	0xbd9a8577	-0.07544988
136	0xbccda9c9	-0.025105374
137	0x3d4d9157	0.050187435
138	0xbc121a74	-0.00891744
139	0x3d92f867	0.07176285
140	0x3d9aff11	0.07568181
141	0xbdbe4e01	-0.09292222
142	0x3d090793	0.03345449
143	0x3c589e38	0.013221316
144	0xbb37acae	-0.002802651
145	0x3cbf5d32	0.023359869
146	0x3c992d11	0.018698247
147	0xbda42dda	-0.08016558
148	0xbc2d61ed	-0.010582429
149	0x3df33b10	0.118765
150	0x3d8d6c36	0.06905405
151	0xbb99e160	-0.0046960562
152	0xbdf0c6a2	-0.11756636
153	0x3cfe36ca	0.031031985
154	0xbd841a8c	-0.06450376
155	0x3c4c81bb	0.012482102
156	0xbdc29cba	-0.095025495
157	0xbc36694c	-0.011133503
158	0xbd05a929	-0.032632027
159	0x3d4c1f8b	0.04983477
160	0x3df714a9	0.120644875
161	0x3dcc2221	0.09967447
162	0xbe029768	-0.1275307
163	0x3dbac5bf	0.09119748
164	0x3dd6c244	0.10486272
165	0xbd2aeda1	-0.041730527
166	0xbcc79c92	-0.02436665
167	0x3d89b6eb	0.06724342
168	0xbdcab5f6	-0.098979875
169	0xbd2f4aab	-0.04279582
170	0xbbd99f53	-0.0066413074
171	0xbdca55ee	-0.09879671
172	0x3d503b22	0.050837643
173	0x3c9330cc	0.017967604
174	0x3d66289a	0.056191064
175	0x3dcfbcd5	0.10143439
176	0xbce95015	-0.028480569
177	0x3ddef6df	0.10886931
178	0x3d5f6ede	0.05454909
179	0xbdd520fb	-0.10406681
180	0xbdacbd10	-0.08434498
181	0xbdaea57c	-0.085276574
182	0xbd73762e	-0.059438877
183	0xbdd929a0	-0.106036425
184	0xbee4130e	-0.44545788
185	0xbd1f422e	-0.038881473
186	0xbd954332	-0.07288207
187	0xbdfc5f9c	-0.123229235
188	0xbcb56a64	-0.022145458
189	0xbc308f44	-0.010776345
190	0x3dd64e2e	0.1046413
191	0xbd0596ad	-0.0326144
192	0xbd3df539	-0.04637644
193	0x3d8aa66e	0.06770025
194	0xbd9099a7	-0.07060557
195	0xbd93de7b	-0.07220169
196	0x3d9dbaaa	0.07701619
197	0xbddf0da0	-0.10891271
198	0x3c84ae55	0.01619641
199	0x3de0122c	0.10940966
200	0x3d3e8638	0.04651472
201	0x3c39e2f9	0.011345618
202	0xbd951796	-0.07279889
203	0xbc792c51	-0.01520832
204	0x3d1b8cf3	0.037976217
205	0x3c8161fb	0.015793791
206	0x3d1cd6d8	0.03829083
207	0x3dde720e	0.10861598
208	0xbe008835	-0.12551959
209	0xbceac9d0	-0.028660685
210	0xbd828171	-0.06372345
211	0xbdcd425c	-0.10022423
212	0xbbb16570	-0.0054137036
213	0xbde15734	-0.11002961
214	0x3da14beb	0.07875808
215	0x3c6d3050	0.014476851
216	0xbd89f928	-0.06736976
217	0x3d85c7be	0.065322384
218	0xbe0874af	-0.13325761
219	0xbd460a8c	-0.048349902
220	0xbc4de2d7	-0.01256629
221	0xbded3c6c	-0.1158379
222	0xbdaa0c3e	-0.08303116
223	0xbd39583a	-0.045250155
224	0x3dace79d	0.08442614
225	0x3de844fc	0.11341283
226	0x3d275eda	0.040861942
227	0xbdd406a8	-0.10352832
228	0xbdbe6196	-0.09295957
229	0x3dcaa086	0.09893899
230	0x3ce3a406	0.027788173
231	0xbc7c051a	-0.015382076
232	0xbc9dbd86	-0.01925541
233	0xbdcdbf12	-0.100462094
234	0xbd979fef	-0.07403552
235	0x3ddfaf64	0.10922125
236	0xbce4a79c	-0.027911954
237	0xbc98140c	-0.018564247
238	0xbe029760	-0.12753057
239	0xbda2d601	-0.07950974
240	0x3b2e122a	0.002656112
241	0xbd964492	-0.073372975
242	0xbd808dd2	-0.0627705
243	0x3d628006	0.055297874
244	0xbdf386ca	-0.11890943
245	0x3cd52536	0.02601872
246	0xbd810b1c	-0.06300947
247	0xbd79e1d4	-0.061006382
248	0x3d448fd0	0.047988713
249	0x3db08548	0.086191714
250	0xbd9adce3	-0.07561662
251	0xbd52361c	-0.051321134
252	0xbe11e3c2	-0.14247039
253	0xbd8a3f84	-0.06750396
254	0xbdf9590a	-0.12175186
255	0xbd1b1de0	-0.037870288

gc2.linear.bias f4 [64]
0	0xbd3b92f6	-0.04579445
1	0xbdee6ca2	-0.11641814
2	0x3e55a3c6	0.20863256
3	0x3da8b10f	0.08236896
4	0x3e39a471	0.18129136
5	0xbbeac778	-0.007164892
6	0x3e3f68e3	0.18692355
7	0xbe075318	-0.13215292
8	0xbde2339e	-0.110450014
9	0x3d8e0ba8	0.06935817
10	0x3c50d004	0.012744907
11	0x3d0f3466	0.03496208
12	0xbd9a962a	-0.07548173
13	0x3e0578c5	0.13034351
14	0x3e33c9f5	0.17557509
15	0xbda78996	-0.08180539
16	0xbd4fc889	-0.050728355
17	0xbe273a71	-0.16330887
18	0x3e26bf0a	0.16283813
19	0x3db1ddbf	0.08684873
20	0xbe042c10	-0.12907434
21	0xbc9ef423	-0.019403523
22	0x3d5f8e08	0.05457881
23	0xbd25196d	-0.04030745
24	0xbd3d2af4	-0.04618354
25	0xbd71c737	-0.059027877
26	0xbdac44ee	-0.08411585
27	0x3c75528b	0.014973293
28	0xbe464d08	-0.19365323
29	0x3e672f66	0.22576675
30	0xbd81d7b5	-0.06339971
31	0xbc825fc8	-0.015914813
32	0xbd5ee88a	-0.054420985
33	0x3d3fe07e	0.04684495
34	0xbd6bf955	-0.05761083
35	0xbde8f4b2	-0.11374797
36	0xbd9dc8b5	-0.077042975
37	0xbde0b5d1	-0.10972179
38	0xbdccc263	-0.09998014
39	0x3d9a8bc3	0.07546189
40	0x3d90bfa4	0.070678025
41	0xbdb09e32	-0.08623923
42	0xbe02d8f7	-0.12778078
43	0xbce046fe	-0.027377602
44	0x3d159341	0.036517385
45	0xbd9c199a	-0.076220706
46	0xbc974764	-0.018466659
47	0x3ce50c92	0.027960096
48	0xbd4012bb	-0.046892863
49	0x3c8a8527	0.016909195
50	0x3e8e6446	0.27810878
51	0x3e51059c	0.20412296
52	0xbd0ec641	-0.03485704
53	0x3dc84d00	0.097803116
54	0x3daf6425	0.08564023
55	0x3cc580b4	0.024109222
56	0x3d537785	0.051627655
57	0x3d78f655	0.060781796
58	0xbd8ad7f0	-0.06779468
59	0x3cc8aeed	0.024497474
60	0x3d7842a8	0.060610443
61	0x3e5f2a08	0.21793377
62	0x3dc02638	0.0938229
63	0xbcbc3da8	-0.022978619

gc3_mu.linear.weight f4 [32, 64]
0	0x3d91b855	0.07115237
1	0x3b844840	0.004036933
2	0x3db48e01	0.088161476
3	0xbcd42d18	-0.025900409
4	0x3cc6ec80	0.024282694
5	0x3c92ff10	0.017943889
6	0x3d5243d7	0.05133423
7	0xbdae00f5	-0.08496276
8	0xbd0f5128	-0.034989506
9	0x3db9ead0	0.0907799
10	0x3c76e3e5	0.015068983
11	0x3da36889	0.07978923
12	0xbd25ec5e	-0.04050862
13	0xbcc591d0	-0.02411738
14	0xbdd3c643	-0.1034055
15	0xbda38ae4	-0.07985476
16	0xbda7b50c	-0.08188829
17	0x3d8493d3	0.06473508
18	0x3c4b5179	0.012409561
19	0xbd49ff0c	-0.049315497
20	0x3e0e7939	0.1391343
21	0x3ceb6c4f	0.028738169
22	0x3d2bc870	0.0419392
23	0xbd316550	-0.04330951
24	0x3db13d0e	0.086542234
25	0xbd5af080	-0.053452015
26	0x3cbc80ba	0.0230106
27	0xbd932dda	-0.0718648
28	0x3d2aeb53	0.04172833
29	0xbc7b8867	-0.015352345
30	0x3d817042	0.063202396
31	0xbdd6b328	-0.1048339
32	0xbceec569	-0.029146867
33	0xbcedfdab	-0.029051622
34	0xbc9617fb	-0.018321982
35	0xbd7b7dcc	-0.061399266
36	0xbd232260	-0.039827704
37	0xbd1a5a41	-0.03768373
38	0x3dc2ef50	0.095183015
39	0xbcaa31d9	-0.020775722
40	0x3deb3eab	0.11486562
41	0xbcf47507	-0.02984096
42	0xbd81af7a	-0.063322976
43	0xbc250ac6	-0.010073369
44	0xbcb9661f	-0.022631703
45	0x3d22a0c0	0.039704084
46	0x3dbadd8f	0.0912429
47	0x3d5f536f	0.054522928
48	0xbbd0958e	-0.0063654846
49	0xbc3cd545	-0.011525457
50	0x3b065378	0.0020496529
51	0xbdb2a0b6	-0.087220594
52	0x3d6882cb	0.05676536
53	0x3dde0cdb	0.10842296
54	0x3d6625a0	0.056188226
55	0xbc42ff1f	-0.011901646
56	0x3af34b5c	0.0018561888
57	0xbd6aa2c7	-0.057284143
58	0x3b1aa953	0.002359946
59	0x3d867e7b	0.06567093
60	0xbd2bf8f4	-0.041985467
61	0x3d05f30d	0.032702494
62	0xbca209b8	-0.019780025
63	0xbd0c032c	-0.034182712
64	0x3a296414	0.0006461751
65	0xbdc14e30	-0.09438741
66	0x3cb22cec	0.021749936
67	0xbdcc80fd	-0.0998554
68	0xbd6d781d	-0.057975877
69	0x3d920e49	0.07131631
70	0x3dbc9223	0.09207561
71	0xbcd1980e	-0.0255852
72	0xbdb6f952	-0.08934273
73	0xbdd231d8	-0.10263413
74	0xbd36c436	-0.044620715
75	0xbd8c9af7	-0.06865495
76	0x3dad869e	0.08472942
77	0xbda7cd19	-0.08193416
78	0x3d4fd4c8	0.050740033
79	0x3c8c592b	0.017132362
80	0xbd289bd6	-0.04116424
81	0x3db23cb4	0.087029845
82	0xbc67dd3a	-0.014151866
83	0xbc3dc4b2	-0.01158254
84	0xbd73a232	-0.059480853
85	0xbcb2c2a2	-0.021821324
86	0x3d0bd9c1	0.034143213
87	0x3dc9a92e	0.098467216
88	0xbd2cc74c	-0.04218225
89	0xbc813d1a	-0.015776206
90	0x3b63fda6	0.0034788637
91	0x3d8743e7	0.06604748
92	0x3db6b0e8	0.08920461
93	0x3d4060b4	0.046967223
94	0xbd8230cd	-0.06356964
95	0x3db7648e	0.08954726
96	0xbc8b12d8	-0.016976759
97	0x3d5813e6	0.05275335
98	0x3d3d0a9c	0.046152696
99	0xbdd0b728	-0.10191184
100	0x3c8d2cd6	0.017233294
101	0xbcb0d74a	-0.021587033
102	0xbdb85cb0	-0.09002054
103	0x3dfdafdc	0.12387058
104	0x3dbe3a7b	0.09288498
105	0x3db5a6f6	0.08869736
106	0x3bfaa437	0.0076489705
107	0xbda16321	-0.078802355
108	0xbd84ded7	-0.06487816
109	0x3d34f710	0.04418093
110	0xbcd11a5d	-0.025525266
111	0x3db80af6	0.08986466
112	0xbd0685c7	-0.032842424
113	0xbcbafb56	-0.022824924
114	0xbdadb5a2	-0.08481909
115	0x3d23652e	0.039891414
116	0x3dc7b81a	0.097519115
117	0xbd366e70	-0.044538915
118	0xbd90732d	-0.07053218
119	0xbd2d2cf9	-0.042279217
120	0x3bd3c700	0.0064629316
121	0xbdcbd26a	-0.09952243
122	0x3d561dba	0.052274443
123	0x3d1f4dd4	0.038892582
124	0xbd7abfa6	-0.061217926
125	0xbd92f762	-0.07176091
126	0xbdd05e58	-0.10174245
127	0x3dc81d40	0.09771204
128	0x3dd18646	0.10230689
129	0x3d11868c	0.035528705
130	0xbd886c86	-0.06661324
131	0xbc6208e3	-0.013796064
132	0xbe9b3176	-0.30311173
133	0x3d81feb4	0.06347409
134	0xbe42da57	-0.19028603
135	0x3cc24a27	0.023717
136	0xbd4b2eb4	-0.049605086
137	0xbb917200	-0.0044386387
138	0xbdaa32aa	-0.08310445
139	0xbdc54a9c	-0.09633371
140	0x3e2e7a8a	0.17038932
141	0xbe828b76	-0.25497025
142	0xbd451f0c	-0.04812531
143	0x3d888fe6	0.066680714
144	0xbdeeef4b	-0.11666735
145	0x3d55f22d	0.05223291
146	0xbe528f5f	-0.20562504
147	0xbe3fd66c	-0.18734139
148	0x3ded3af1	0.11583508
149	0x3da4229a	0.08014412
150	0x3a8797c6	0.0010344915
151	0xbd20f398	-0.03929481
152	0x3df44e94	0.1192905
153	0x3de55ffc	0.11199948
154	0x3e3ca6b8	0.18422973
155	0xbc7b6751	-0.015344457
156	0x3e2da191	0.16956164
157	0xbe4b57c3	-0.19857697
158	0x3d0583c5	0.03259637
159	0x3d03eb20	0.032206655
160	0x3de2cdc8	0.11074406
161	0x3b54070d	0.0032352835
162	0x3b1595bb	0.0022824842
163	0x3dfc8604	0.12330249
164	0xbd12e0ad	-0.0358588
165	0xbd762d67	-0.060101893
166	0x3dc59667	0.096478276
167	0x3cf3da6c	0.029767238
168	0xbdaf7d59	-0.0856883
169	0x3dfc12ab	0.12308248
170	0xbe09227d	-0.13392062
171	0xbd8f46b3	-0.06995907
172	0x3c8872a9	0.016656237
173	0x3d86daba	0.065846875
174	0xbd9be887	-0.076127104
175	0x3dbd063e	0.09229706
176	0x3e8f9afa	0.28047925
177	0xbc9c73c0	-0.019098163
178	0xbeb6d6f2	-0.35710865
179	0xbdfd3913	-0.12364402
180	0x3c823657	0.015895052
181	0x3db53b0e	0.088491544
182	0xbc812df3	-0.01576898
183	0x3bfe44b9	0.007759657
184	0x3d2ad396	0.04170569
185	0xbc8fac36	-0.017538171
186	0xbd7ac4b2	-0.06122274
187	0x3e39e77b	0.18154709
188	0xbd9c6805	-0.07637028
189	0xbe5f1ac3	-0.21787553
190	0xbe6127ee	-0.21987888
191	0xbd436e08	-0.047712356
192	0x3dbfffd4	0.09374967
193	0xbc464680	-0.012101769
194	0x3d22092e	0.039559536
195	0xbdb14473	-0.08655634
196	0x3c56c1e7	0.013107753
197	0xbd40f8f6	-0.047112428
198	0xbad6132c	-0.0016332618
199	0xbd8bdebe	-0.06829594
200	0xbd63292c	-0.055459186
201	0xbddb772c	-0.107160896
202	0xbdc2adc0	-0.095057964
203	0xbc849935	-0.016186336
204	0xbd33d086	-0.043900035
205	0x3db4c714	0.08827034
206	0xba7d6648	-0.0009666425
207	0x3dcc62a0	0.09979749
208	0xbc1756e9	-0.00923703
209	0x3d1778b4	0.036980346
210	0x3e697b36	0.22800907
211	0xbd90b028	-0.07064849
212	0xbd09f007	-0.033676174
213	0x3dac7095	0.08419911
214	0xbc9d6782	-0.019214395
215	0xbcc3b618	-0.02389054
216	0x3c245c20	0.01003173
217	0xbd107829	-0.035270844
218	0x3dd8c375	0.105841555
219	0xbd2730ec	-0.04081814
220	0x3d1c7055	0.038193066
221	0xbda9c352	-0.082892075
222	0xbd015d9f	-0.031583425
223	0xbd40dfa8	-0.047088295
224	0x3ca837bb	0.020534387
225	0x3d9c701d	0.076385714
226	0xbde13b8a	-0.10997684
227	0xbdb28ac2	-0.08717872
228	0xbde82077	-0.11334317
229	0x3d929c5e	0.07158731
230	0x3dd22e60	0.102627516
231	0xbdd637db	-0.10459872
232	0x3c83b775	0.01607869
233	0x3d1f9e6c	0.038969442
234	0xbd6e0394	-0.05810888
235	0x3cf5da55	0.030011335
236	0x3deff55f	0.11716723
237	0x3dfb1a42	0.12260868
238	0x3d7f63a3	0.06235088
239	0xbc3a32b6	-0.0113646295
240	0x3d03985b	0.03212772
241	0xbce3c642	-0.027804498
242	0xbe113ba9	-0.14182915
243	0x3bfaf51e	0.007658615
244	0x3dd4bf7b	0.103880845
245	0xbdcbb068	-0.09945756
246	0x3c883fd2	0.016631994
247	0xbce5c2a5	-0.028046915
248	0x3cbc0681	0.02295232
249	0x3de04b00	0.10951805
250	0x3c798808	0.015230186
251	0xbbc5d695	-0.006037543
252	0xbd119978	-0.03554675
253	0xbe1f3fce	-0.15551683
254	0xbe550414	-0.20802337
255	0x3d5f1688	0.054464847

gc3_mu.linear.bias f4 [32]
0	0x3bb51e3e	0.005527287
1	0xbb4519c1	-0.0030075165
2	0x3f1184d8	0.5684333
3	0xbbf68450	-0.007523097
4	0x39faa5d8	0.0004780728
5	0xbb92ddfe	-0.00448203
6	0x3bca6836	0.0061769737
7	0x3aab61d1	0.0013075416
8	0x393d1203	0.00018031154
9	0xbc4f2b4e	-0.012644602
10	0x3b23b24e	0.0024978104
11	0x38507b68	4.9705995e-05
12	0x3b5096aa	0.0031828084
13	0xba08456d	-0.00051983335
14	0x3c035e2c	0.008018058
15	0xbb73209c	-0.0037098294
16	0x3b7d6042	0.003866211
17	0x3bab7184	0.005232038
18	0xbb1574ae	-0.0022805142
19	0x3b839627	0.0040157023
20	0x3bae44bf	0.0053182538
21	0x3aaebf95	0.0013332242
22	0x3ab517bb	0.0013816276
23	0x39313ea3	0.0001690337
24	0x3b396b72	0.0028292802
25	0xbb400a60	-0.002930306
26	0x3b34a502	0.0027564173
27	0xbaf84647	-0.0018941843
28	0x39e172da	0.00043000915
29	0xbb588f03	-0.0033044226
30	0x3a077a62	0.0005168078
31	0x386ded92	5.6726458e-05

gc3_logvar.linear.weight f4 [32, 64]
0	0xbce3ca22	-0.027806345
1	0x3dcbb0be	0.0994582
2	0xbdd23fee	-0.102661
3	0xbde218be	-0.110398754
4	0x3d4cd6e5	0.050009627
5	0x3d8fd360	0.070227385
6	0xbd207634	-0.039175227
7	0x3cae3a67	0.021268083
8	0x3dcd7460	0.100319624
9	0x3c4bb880	0.012434125
10	0xbd4158cd	-0.047203828
11	0x3d703dc8	0.05865267
12	0x3dce30bf	0.10067891
13	0xbd0f659b	-0.035009008
14	0x3d8a95e1	0.067668684
15	0x3a1dbc91	0.00060171733
16	0xbd1b689b	-0.037941556
17	0xbcba5a99	-0.022748278
18	0xbd1b4d39	-0.037915442
19	0x3d4c7d57	0.04992422
20	0xbda7ae9f	-0.08187603
21	0xbde1bfc8	-0.110229075
22	0xbd01d7ea	-0.031700052
23	0xbd7ac129	-0.061219368
24	0xbda2f138	-0.07956165
25	0xbd16eb62	-0.036845572
26	0xbcdd0f12	-0.026984725
27	0x3ccd2b1d	0.025044972
28	0x3d916eb8	0.07101196
29	0x3c00b972	0.007856714
30	0x3c1f4e86	0.009723311
31	0xbda5a41a	-0.080879405
32	0x3db756c8	0.08952099
33	0x3d47abde	0.04874789
34	0x3d889d2c	0.06670603
35	0xbde4565c	-0.11149284
36	0x3d94b460	0.07260966
37	0x3cb1046e	0.021608558
38	0xbe070b0a	-0.13187805
39	0x3dd6b54b	0.10483798
40	0xbcb6955c	-0.022288017
41	0x3c2c3a91	0.01051201
42	0x3dc2ae04	0.09505847
43	0x3d8b3e55	0.06798998
44	0x3dc5b726	0.096540734
45	0xbdeef0f6	-0.116670534
46	0x3de65493	0.112466
47	0x3ca0c3a0	0.019624531
48	0xbc74c0e2	-0.014938565
49	0xbdc89819	-0.09794635
50	0xbc9aed21	-0.0189119
51	0x3ddc5431	0.10758246
52	0x3da5321a	0.08066197
53	0x3daf9f05	0.085752524
54	0xbc81c56d	-0.01584121
55	0xbda6aaa2	-0.081380144
56	0x3c93997a	0.01801752
57	0xbd96d364	-0.07364538
58	0xbdbf4af0	-0.09340465
59	0x3cdfa418	0.027299926
60	0x3daa8457	0.08326023
61	0xbdd60c31	-0.10451544
62	0xbde08fd2	-0.109649315
63	0x3c8a5a58	0.016888782
64	0xbd70ce0b	-0.058790248
65	0xbd88e488	-0.06684214
66	0xbd2abc92	-0.04168374
67	0x3c8c8011	0.01715091
68	0xbb6bce51	-0.0035981128
69	0x3da035bc	0.07822749
70	0x3d339dbf	0.04385161
71	0x3cb60116	0.022217315
72	0xbd242f18	-0.040083975
73	0xbc368c80	-0.011141896
74	0x3d8806c7	0.06641918
75	0xbbb69e64	-0.005573081
76	0xbe08428b	-0.13306634
77	0xbb4c15f1	-0.0031141008
78	0x3cdeae86	0.027182829
79	0xbd70ec9d	-0.058819402
80	0xbcfe4060	-0.031036556
81	0xbd046d90	-0.03233105
82	0x3d0fbbee	0.035091333
83	0x3dc4f15f	0.096163504
84	0xbdb61e4e	-0.08892499
85	0x3da9f6fe	0.08299063
86	0x3d1452dc	0.036211833
87	0x3d0a26cf	0.033728417
88	0xbd916bfe	-0.07100676
89	0xbd6a14b1	-0.05714864
90	0x3da08425	0.078377046
91	0x3ca486c8	0.0200838
92	0x3c26e6e3	0.010186884
93	0x3bd61639	0.006533411
94	0x3d88acf8	0.06673616
95	0xbcff1618	-0.031138465
96	0x3d8c758a	0.06858356
97	0xbd4417b9	-0.047874186
98	0x3cb6c8a0	0.022312462
99	0x3d06e0f4	0.032929376
100	0xbd9c90c5	-0.076448
101	0xbd4c18bf	-0.049828287
102	0x3c17ed30	0.0092728585
103	0xbdffffc5	-0.12499956
104	0xbbbb605a	-0.005718273
105	0x3ad7b092	0.001645582
106	0x3db48b1b	0.08815595
107	0x3c31ad76	0.010844579
108	0xbded2c5c	-0.115807265
109	0xbd16108c	-0.036636874
110	0x3de89fcd	0.113586046
111	0xbccfd7d4	-0.02537147
112	0xbd048e80	-0.03236246
113	0x3c890eb2	0.01673064
114	0x3cae3955	0.021267572
115	0xbd912cc9	-0.0708862
116	0x3ddb2eed	0.1070231
117	0x3c64bcc5	0.013961022
118	0xbcfe9b28	-0.031079844
119	0x3da4451c	0.08020994
120	0x3d4e278d	0.050330687
121	0xbdae2ce5	-0.08504657
122	0xbcd2880c	-0.025699638
123	0x3d9c0709	0.07618529
124	0x3c658d90	0.014010802
125	0xbd53fd3b	-0.05175517
126	0xbd573744	-0.05254294
127	0xbdb34442	-0.087532535
128	0x3d80b769	0.06284983
129	0x3d67add8	0.056562275
130	0xbe39db9b	-0.18150179
131	0xbd0471f6	-0.032335244
132	0xbed9c5d1	-0.42533734
133	0xbdf71ecd	-0.12066422
134	0xbc8dc6c1	-0.017306687
135	0xbcc4b208	-0.024010673
136	0xbd4ffcd4	-0.050778225
137	0x3c640a00	0.0139184
138	0x3ca8e91b	0.020618966
139	0x3c0a608f	0.008445873
140	0x3dfefd1b	0.1245062
141	0x3c2918c9	0.010320851
142	0xbdea754d	-0.114481546
143	0x3d04d487	0.032429244
144	0x3cc6c52b	0.024263939
145	0xbd3094c9	-0.043110643
146	0xbeaacc1c	-0.33358848
147	0xbd8fb56a	-0.07017024
148	0xbbd4ec54	-0.006497899
149	0xbd9ee2d6	-0.07758109
150	0x3cec0d01	0.028814794
151	0xbd7afa87	-0.061274078
152	0x3df518ee	0.119676456
153	0x3e181259	0.14850749
154	0x3e7a2155	0.24426778
155	0xbbaf9a39	-0.005358961
156	0x3e243e92	0.16039494
157	0xbe21fb16	-0.15818438
158	0x3d7cfb9c	0.06176339
159	0xbbdfd260	-0.0068304986
160	0xbd0af30e	-0.0339232
161	0x3ca7278b	0.020404598
162	0xbd2e359f	-0.042531606
163	0xbbd02040	-0.0063515007
164	0x3ce58242	0.028016213
165	0x3cb9b326	0.022668432
166	0xbdf54569	-0.119761296
167	0x3d368d3d	0.04456829
168	0xbdc9736f	-0.0983647
169	0xbd3b6dc8	-0.045758992
170	0xbd360928	-0.044442326
171	0x3bbb5c6a	0.0057178037
172	0x3b08c823	0.0020871244
173	0xbde40040	-0.1113286
174	0x3d72daf8	0.059290856
175	0x3dd02bb2	0.10164584
176	0x3df67f6d	0.12036023
177	0x3e383253	0.17987947
178	0xbe9ba31a	-0.30397874
179	0xbd46d2ed	-0.048541
180	0x3d8bfdae	0.06835495
181	0xbda7c5ba	-0.0819201
182	0x3ccf7188	0.02532269
183	0x3dd5d251	0.10440505
184	0xbb69c62b	-0.0035671096
185	0xbdef3217	-0.11679476
186	0x3c71dbb5	0.014761855
187	0x3d4d5c12	0.050136633
188	0x3c4e4cd8	0.012591563
189	0xbce5c980	-0.028050184
190	0x3dbbbcee	0.09166895
191	0xbd7e9298	-0.06215152
192	0x3d8289c3	0.06373932
193	0xbd909d44	-0.07061246
194	0xbd7d6fd2	-0.06187422
195	0x3da0b8ff	0.07847785
196	0xbc4d412d	-0.012527746
197	0xbcce0c7f	-0.025152443
198	0xbd35564d	-0.044271756
199	0xbddc05eb	-0.10743316
200	0x3d76cfcc	0.060256764
201	0xbd6358d8	-0.05550465
202	0xbd961fb9	-0.07330269
203	0xbd3b90cb	-0.045792382
204	0x3c989169	0.018624024
205	0x3db0621f	0.08612465
206	0x3dc9240e	0.0982133
207	0x3c09e393	0.008416074
208	0xbdf37867	-0.11888199
209	0x3a8ab083	0.0010581169
210	0x3ddde2de	0.10834287
211	0x3db0918a	0.086215094
212	0xbd1f6bd7	-0.038921203
213	0xbe009dea	-0.1256024
214	0x3ce64448	0.02810873
215	0xbd167f9d	-0.036742795
216	0x3d32a734	0.04361649
217	0x3c32dcd1	0.010916905
218	0xbb00c0c4	-0.0019646147
219	0x3d3497c9	0.044090066
220	0xbafd5972	-0.0019329025
221	0xbbfcd061	-0.0077152704
222	0x3d9e8010	0.0773927
223	0x3de9fd6c	0.114252895
224	0xbd84c19a	-0.06482239
225	0x3dd3f694	0.103497654
226	0xbab5e5d8	-0.0013877703
227	0xbd06891c	-0.0328456
228	0xbdc0f667	-0.094219975
229	0xbc1593b9	-0.009129458
230	0x3db4e3f0	0.08832538
231	0xbdb998ba	-0.090623334
232	0xbdc052ab	-0.09390768
233	0x3dcd53d6	0.10025756
234	0xbd827175	-0.063692965
235	0x3dc6dc38	0.09709972
236	0x3cf7b2c1	0.030236604
237	0x3d7e010c	0.062012717
238	0xbb95b9f3	-0.004569286
239	0xbd1391f6	-0.03602787
240	0x3c9da6fb	0.019244662
241	0xbc77456d	-0.015092236
242	0xbd09caf4	-0.033640817
243	0xbd8dbef2	-0.069211856
244	0xbdd68c16	-0.10475938
245	0xbd03b3dc	-0.03215395
246	0x3d26a539	0.040684912
247	0xbdb7762b	-0.089580856
248	0x3c298321	0.010346205
249	0x3d1599fa	0.036523797
250	0x3d86e159	0.065859504
251	0xbd5d7b8b	-0.054072898
252	0xb98972dd	-0.00026216256
253	0xbdf36234	-0.11883965
254	0x3cc0c50a	0.023531456
255	0xbdcc983e	-0.099899754

gc3_logvar.linear.bias f4 [32]
0	0xba01e542	-0.00049551215
1	0xba3ea519	-0.0007272526
2	0xbf88ee9f	-1.0697821
3	0xbbb77a1e	-0.0055992743
4	0xb90ee173	-0.00013626162
5	0xba0e7f3c	-0.00054358295
6	0x39058f04	0.00012737146
7	0xba882f73	-0.0010390118
8	0xbab5b714	-0.0013863766
9	0xbb2f6ce9	-0.0026767796
10	0xbbd52cda	-0.006505591
11	0xba920bde	-0.0011142453
12	0xbc08c6d4	-0.008348186
13	0xba048970	-0.000505588
14	0xba9b2f50	-0.0011839662
15	0xbae97e8f	-0.0017814207
16	0xb9f33b02	-0.00046392536
17	0x39b0c7fc	0.00033718336
18	0xbb18e8f8	-0.002333222
19	0xba6b93f7	-0.0008986587
20	0xba990d4c	-0.0011676936
21	0xbaee9cf4	-0.0018204735
22	0xba485d10	-0.0007643262
23	0x394f4fa4	0.00019770727
24	0xb9af5346	-0.00033440645
25	0xba140c36	-0.00056475715
26	0xb9da8d21	-0.0004168535
27	0xba0de276	-0.00054124685
28	0xba4c389a	-0.0007790417
29	0xbaa2afb6	-0.0012411985
30	0xba26dea3	-0.0006365573
31	0xbaf23ae7	-0.0018480689

condition_encoder.0.weight f4 [64, 2]
0	0xbf3d029d	-0.7383211
1	0xbeba5369	-0.36391762
2	0xbec080ef	-0.3759837
3	0x3ec42072	0.38306004
4	0x3d119fd0	0.0355528
5	0xbf00917d	-0.50222
6	0x3f11df2b	0.5698115
7	0xbea5198d	-0.32246056
8	0xbe23df62	-0.16003183
9	0x3cfa4e1c	0.030554824
10	0xbf1c5ac9	-0.6107603
11	0xbebd4031	-0.36963037
12	0xbe86e58e	-0.2634701
13	0xbe6fda94	-0.23423225
14	0xbe83539d	-0.2564973
15	0x3ee7bd12	0.45261437
16	0xbec884df	-0.39163873
17	0xbf184314	-0.59477353
18	0x3e00f1c5	0.12592228
19	0xbda64e89	-0.08120448
20	0xbdd12d1b	-0.10213681
21	0xbe2125a1	-0.1573701
22	0x3ef31075	0.47473493
23	0xbeebfab5	-0.46089712
24	0xbf240252	-0.6406604
25	0xbf3ae2c8	-0.7300229
26	0x3d7723d8	0.060336918
27	0x3d284bcd	0.041087914
28	0xbdd476d8	-0.1037423
29	0xbf5e340c	-0.8679817
30	0xbf303f72	-0.6884681
31	0xbf4fa481	-0.8111039
32	0x3e9b06ae	0.30278534
33	0xbd8fa953	-0.07014718
34	0xbed8e98b	-0.4236568
35	0xbf48f591	-0.78499705
36	0x3e351407	0.17683421
37	0xbe76c8bb	-0.2410001
38	0x3f05ae80	0.5221939
39	0xbf3dab4a	-0.7408949
40	0xbf3d869a	-0.7403351
41	0xbe3a5e38	-0.18200004
42	0x3ef2a722	0.47393137
43	0x3eef25b6	0.4670846
44	0x3ef5e6a7	0.48027536
45	0x3e48de3a	0.19616023
46	0x3ea1b67a	0.3158453
47	0xbede9a6b	-0.43477187
48	0x3ef67326	0.48134726
49	0xbf04edf3	-0.5192558
50	0x3ee8d082	0.4547158
51	0x3e94f088	0.2908976
52	0xbed1b233	-0.40956268
53	0xbd5b924f	-0.053606328
54	0xbd712aa0	-0.05887854
55	0x3f08af75	0.53392726
56	0x3f0a8475	0.54108363
57	0x3e1b3fb0	0.15161014
58	0xbee599e2	-0.44843966
59	0x3dd99b88	0.10625368
60	0x3f144fdd	0.5793436
61	0xbebfd8a4	-0.3746997
62	0x3ec52ca3	0.38510618
63	0xbd5ff8ba	-0.054680564
64	0x3e522516	0.2052196
65	0x3d886099	0.066590495
66	0x3eb3f530	0.35148
67	0xbf565c60	-0.83734703
68	0x3e9585f2	0.29203755
69	0xbf1cfa5c	-0.6131952
70	0xbd45a3a0	-0.048251748
71	0x3f0d8f9b	0.5529725
72	0xbf3346a0	-0.7002964
73	0xbf51b718	-0.81920004
74	0xbedbc7d6	-0.429259
75	0xbe695e09	-0.22789778
76	0xbe58e4fa	-0.21181098
77	0xbf4fca24	-0.8116782
78	0xbcd2bb24	-0.025724001
79	0xbeca4285	-0.39503875
80	0xbee61903	-0.44940957
81	0xbe86ce9e	-0.2632951
82	0x3e361db3	0.17784767
83	0xbce9aa7b	-0.028523674
84	0xbef13f7a	-0.4711874
85	0x3ef473e9	0.47744682
86	0x3e089d14	0.1334117
87	0xbe943da3	-0.28953275
88	0x3f1cb059	0.61206585
89	0x3e11f600	0.14253998
90	0x3ebc43f6	0.367706
91	0x3efffc5e	0.49997228
92	0xbe1396ec	-0.14413041
93	0x3ec6ceb6	0.38829583
94	0xbe149f23	-0.14513831
95	0x3eab6e03	0.3348237
96	0xbda172c3	-0.07883217
97	0x3d55d168	0.05220166
98	0x3eb6511a	0.3560875
99	0xbec8a637	-0.39189312
100	0x3edf70d3	0.43640766
101	0xbe136fda	-0.14398137
102	0x3e23c2ff	0.15992354
103	0xbf41b975	-0.7567361
104	0xbebbe657	-0.36699173
105	0x3eabfb8a	0.33590347
106	0xbefff168	-0.49988866
107	0x3c4c873a	0.012483412
108	0x3f1ef41b	0.62091225
109	0xbf2befda	-0.6716286
110	0xbbffed00	-0.007810235
111	0x3deb5288	0.11490351
112	0x3ec80076	0.39062852
113	0xbec3ec71	-0.38266328
114	0xbf3c8bc8	-0.7365079
115	0xbf0bf544	-0.5467112
116	0x3e12e518	0.14345205
117	0xbf174f29	-0.59105164
118	0xbf321dcd	-0.6957672
119	0xbe81dd53	-0.2536417
120	0x3e3dfc0c	0.1855318
121	0xbee30584	-0.44340146
122	0xbe8c9e41	-0.27464488
123	0x3ec60956	0.38678998
124	0xbf2d1130	-0.6760435
125	0xbf800d55	-1.0004069
126	0xbea96e2f	-0.33091876
127	0x3eb5a683	0.354786

condition_encoder.0.bias f4 [64]
0	0xbe173223	-0.1476522
1	0xbef56963	-0.47931966
2	0xbf006b0e	-0.5016335
3	0xbe2a2c40	-0.16618443
4	0x3f00b3d2	0.50274384
5	0x3e90573c	0.28191555
6	0xbe57e559	-0.21083583
7	0xbf1d09e4	-0.61343217
8	0xbec51452	-0.38492066
9	0x3e02f382	0.12788203
10	0x3f1de84d	0.6168259
11	0x3ec43802	0.3832398
12	0xbda56408	-0.0807572
13	0x3ec4c60c	0.38432348
14	0x3d9c1639	0.07621426
15	0x3dff0f74	0.12454119
16	0x3eb15141	0.34632304
17	0xbe13b321	-0.14423801
18	0x3e5a73d9	0.21333255
19	0x3da5008f	0.08056747
20	0x3e34a425	0.17640741
21	0xbe1ae238	-0.15125358
22	0x3eee0d96	0.4649474
23	0xbf2312c6	-0.6370052
24	0x3eff623c	0.49879634
25	0xbf155ba5	-0.58342963
26	0xbef87a8a	-0.4853099
27	0xbede9d15	-0.4347922
28	0xbd8bd1b0	-0.06827104
29	0xbcc07f4e	-0.023498204
30	0xbf30068e	-0.6876
31	0x3ec6e7c0	0.38848686
32	0x3e2ad995	0.16684563
33	0x3f3541fb	0.70803803
34	0xbf012f0a	-0.504624
35	0xbf11901d	-0.56860524
36	0x3e4677c4	0.19381624
37	0x3f1110d3	0.56666297
38	0x3eff4057	0.49853775
39	0x3e9a2099	0.30102995
40	0x3e13599a	0.14389649
41	0x3ebe4f81	0.37170032
42	0xbe8ed5f4	-0.27897608
43	0xbf348d59	-0.7052818
44	0xbf16b38f	-0.58867735
45	0xbee788ce	-0.4522156
46	0x3dc99b28	0.09844047
47	0x3f2165af	0.6304578
48	0x3ee2d143	0.4430028
49	0xbeec4e41	-0.46153453
50	0x3e57589d	0.21029897
51	0x3f2295cf	0.6350984
52	0x3d2402da	0.040041782
53	0xbd9ffab4	-0.0781149
54	0xbec41fad	-0.38305417
55	0xbd527990	-0.051385462
56	0x3f087d99	0.53316647
57	0xbe1deb04	-0.15421683
58	0xbd1b6c39	-0.037945006
59	0x3ebbb846	0.36664027
60	0xbe8ac90b	-0.2710651
61	0xbea74189	-0.32667187
62	0x3db0a6ee	0.08625589
63	0x3f095ee3	0.5366041

condition_encoder.2.weight f4 [64, 64]
0	0x3d5215c3	0.051290285
1	0xbba4f6a0	-0.005034283
2	0xbdcb5c94	-0.09929767
3	0x3d98ddb6	0.07464163
4	0xbcfbdc5d	-0.030744726
5	0xbde1f8d2	-0.11033787
6	0xbdeb539c	-0.114905566
7	0xbd72eb80	-0.05930662
8	0xbdc585ae	-0.09644638
9	0x3b07de72	0.0020731953
10	0x3d5b1d35	0.05349465
11	0xbd6cd053	-0.05781586
12	0x3de2e7cb	0.11079367
13	0xbd6cf610	-0.05785185
14	0xbe36ce22	-0.17852071
15	0xbe706708	-0.23476803
16	0xbde67dea	-0.11254485
17	0x3df9591b	0.12175199
18	0x3d59a790	0.053138316
19	0x3daf87c5	0.08570818
20	0xbd969dc2	-0.07354309
21	0x3d2d129c	0.042254075
22	0xbd1b87d3	-0.03797133
23	0x3dfd624a	0.12372263
24	0xbe0aa1af	-0.1353824
25	0xbd0b060c	-0.033941314
26	0xbe12d84b	-0.14340322
27	0x3c4a3fb0	0.012344286
28	0xbdc74d96	-0.09731595
29	0xbd4d4d00	-0.05012226
30	0x3cecd078	0.028908
31	0x3dc615d6	0.096721336
32	0x3db0d18f	0.0863372
33	0x3d316ed9	0.043318603
34	0xbcfd7228	-0.030938223
35	0xbb775500	-0.0037739873
36	0xbe50e3c9	-0.20399393
37	0x3d295b7d	0.041347016
38	0xbc8a3b6e	-0.016874041
39	0x3d804aa0	0.062642336
40	0xbe39bb11	-0.18137766
41	0xbd804e36	-0.062649176
42	0xbd475299	-0.048662756
43	0xbdc3e9ce	-0.09566079
44	0xbd983232	-0.07431449
45	0x3d21c150	0.039490998
46	0x3d95a9db	0.07307788
47	0x3cc9cb37	0.024633033
48	0xbd9bc6e9	-0.076062985
49	0x3d61da14	0.055139616
50	0x3dd25b2e	0.102712974
51	0xbd1ad20b	-0.03779797
52	0xbd29bdab	-0.041440647
53	0xbd790193	-0.060792517
54	0x3db4f754	0.088362366
55	0xbcea04b0	-0.028566688
56	0xbe0a900d	-0.13531514
57	0x3ddea3ba	0.10871072
58	0x3d231c82	0.03982211
59	0xbdd1d545	-0.10245756
60	0xbdfbfc2c	-0.12303957
61	0x3c807488	0.015680566
62	0xbe56fac5	-0.20994098
63	0xbd5da356	-0.054110847
64	0xbd2b5202	-0.041826256
65	0x3dd28f28	0.10281211
66	0x3d87e270	0.066349864
67	0x3dcaf4cc	0.099099725
68	0x3c71ecca	0.014765928
69	0xbc804fc7	-0.01566304
70	0x3d49d286	0.049273036
71	0xb9e8aa00	-0.00044377148
72	0xbc402298	-0.011726998
73	0x3cfec776	0.03110097
74	0xbe1cb776	-0.1530436
75	0x3d6ef51c	0.058339223
76	0xbcdd8fc7	-0.027046097
77	0xbde45ee1	-0.11150909
78	0xbc90e030	-0.017685026
79	0xbe5c885e	-0.21536395
80	0x3d0e9b9e	0.034816377
81	0xbe0e8cc0	-0.1392088
82	0xbd7a5ea3	-0.06112541
83	0xbe0e3591	-0.13887621
84	0x3cf3c20c	0.029755615
85	0x3cfd2ad0	0.030904204
86	0x3daa390a	0.083116606
87	0x3d1c43d0	0.03815061
88	0xbdbaa037	-0.0911259
89	0x3c99f9c0	0.018795848
90	0x3d6595d0	0.056051075
91	0xbdc5ebd8	-0.09664124
92	0xbdaac74e	-0.083387956
93	0xbc3ed7c1	-0.011648119
94	0xbd9fef22	-0.07809283
95	0xbd3a4f12	-0.045485564
96	0x3dd3fef3	0.10351362
97	0x3d09494c	0.033517167
98	0xbdcf8d54	-0.10134378
99	0xbd8a22da	-0.06744929
100	0x3c76f731	0.015073583
101	0xbd4434b9	-0.047901843
102	0xbdc73fa4	-0.09728935
103	0xbc56a235	-0.013100197
104	0xbd9cce7d	-0.07656572
105	0x3c71eae4	0.014765475
106	0x3cea30e3	0.028587764
107	0x3d918f82	0.0710745
108	0x3d8cec30	0.06880987
109	0x3d33c0e4	0.043885127
110	0x3ccdc419	0.02511792
111	0xbd7782a0	-0.060427308
112	0xbe147adf	-0.14499997
113	0xbc452b60	-0.012034267
114	0xbde26609	-0.11054618
115	0xbe0cda0c	-0.13755053
116	0xbdf7f95d	-0.12108109
117	0xbc81e2a9	-0.01585515
118	0xbdbd50a8	-0.092438996
119	0x3cad2250	0.021134526
120	0x3cbaab5f	0.022786794
121	0x3d89aab2	0.06722011
122	0xbe264d7e	-0.16240498
123	0x3d688318	0.056765646
124	0x3d1857d8	0.03719315
125	0x3dcfbee8	0.10143834
126	0xbdd1f56a	-0.10251887
127	0xbbdd379d	-0.0067510144
128	0xbd90d4c6	-0.07071833
129	0x3dd62c24	0.10457638
130	0xbda69ede	-0.0813577
131	0x3dc7af7e	0.09750269
132	0x3e07fc9f	0.13279961
133	0x3d68d472	0.05684323
134	0xbdb5b9fc	-0.08873364
135	0xbdcecd52	-0.100977555
136	0xbd292eb1	-0.041304294
137	0x3df413de	0.11917852
138	0x3cf5d776	0.030009966
139	0xbc60a7cd	-0.013711882
140	0xbde263e7	-0.11054211
141	0x3ceef1f6	0.02916811
142	0x3e06abc8	0.13151467
143	0x3dcc934e	0.09989034
144	0x3d1d6cfa	0.038434006
145	0xbe091956	-0.13388571
146	0x3d9ef962	0.0776241
147	0x3c849536	0.01618443
148	0xbda2ed54	-0.07955423
149	0x3dd4ef1e	0.103971705
150	0x3dbd86cd	0.09254227
151	0x3a806e00	0.0009798408
152	0xbb97e945	-0.004635962
153	0x3de5ef2c	0.11227259
154	0x3e12ef4d	0.14349099
155	0x3ca6e0c0	0.020370841
156	0x3deda41e	0.116035685
157	0x3c81a64e	0.01582637
158	0x3d7457c8	0.059654027
159	0x3c0bdcac	0.008536499
160	0xb8b83e5d	-8.78542e-05
161	0x3dd72f7f	0.10507106
162	0xbd6041b8	-0.054750174
163	0xbdb6dc40	-0.08928728
164	0x3e0af3a1	0.135695
165	0xbb12a6d3	-0.0022377267
166	0x3df474cf	0.11936342
167	0x3bb0ee47	0.0053994986
168	0xbd15a69c	-0.036535844
169	0x3c8fe3af	0.017564623
170	0xbd1f6c41	-0.0389216
171	0x3ceb0ac0	0.02869165
172	0xbdc58108	-0.096437514
173	0xbdd8bfa8	-0.105834305
174	0x3c8e08d2	0.01733819
175	0x3e094162	0.13403848
176	0xbd6b6017	-0.057464685
177	0xbd80c776	-0.06288044
178	0x3ca5c799	0.020236777
179	0x3df58ed2	0.119901314
180	0x3de02d8f	0.109461896
181	0xbd86c7ec	-0.06581101
182	0xbbd6bb40	-0.0065530837
183	0xbdc98dc4	-0.09841493
184	0x3e1388c0	0.14407635
185	0x3ce8b32f	0.028405754
186	0xbcbd61b4	-0.023117878
187	0xbdb17e17	-0.08666628
188	0x3d90b5e6	0.070659444
189	0xbd903dde	-0.0704305
190	0x3de65f8c	0.11248693
191	0x3da8703d	0.08224533
192	0x3d428397	0.047488775
193	0xbd79ba10	-0.06096846
194	0x3dacea90	0.08443177
195	0x3dad83bc	0.08472392
196	0xbc8e335a	-0.01735847
197	0xbdf0fbb2	-0.11766757
198	0x3c9ccbc6	0.019140135
199	0xbde5f6b2	-0.11228694
200	0x3c9ffaf5	0.019528845
201	0xbe04854d	-0.12941475
202	0xbd27a585	-0.040929336
203	0xbde7ca62	-0.11317898
204	0x3e0438ec	0.12912339
205	0xbe026b4e	-0.12736246
206	0xbe11e568	-0.14247668
207	0xbe144654	-0.14479953
208	0xbd64c6db	-0.055853706
209	0x3de539c1	0.11192656
210	0x3d88986c	0.06669697
211	0x3de37651	0.111065514
212	0xbd999f96	-0.07501142
213	0x3cf06820	0.029346526
214	0xbc212442	-0.009835305
215	0x3d8d309c	0.06894037
216	0x3d05465a	0.032537796
217	0x3d9684dc	0.0734956
218	0x3dc100ad	0.09423957
219	0x3dd51cb8	0.10405868
220	0x3bd14180	0.006385982
221	0x3de70405	0.112800635
222	0xbd8fd8ae	-0.0702375
223	0xbd45a990	-0.04825741
224	0xbd489192	-0.04896695
225	0xbd8a77de	-0.06761144
226	0x3bea8bc0	0.007157773
227	0xbdf0db30	-0.11760557
228	0xbe01099d	-0.12601323
229	0xbd3680b9	-0.044556353
230	0xbc2288d1	-0.009920315
231	0x3d6bebca	0.057597913
232	0xbe029b18	-0.12754476
233	0x3b970069	0.004608203
234	0x3d5141c9	0.05108813
235	0xbd889846	-0.06669669
236	0x3cae23a0	0.021257222
237	0xbd862dec	-0.06551728
238	0xbc97372f	-0.01845893
239	0xbdc5409a	-0.096314624
240	0xbd807569	-0.06272394
241	0xbd4a8b5c	-0.04944931
242	0x3dbf8a83	0.09352591
243	0xba80cc61	-0.0009826535
244	0xbe12069e	-0.14260337
245	0x3d4c15f0	0.04982561
246	0x3d8b9a16	0.06816499
247	0xbd5ef770	-0.054435194
248	0xbdd1871d	-0.10230849
249	0x3cfb0a91	0.030644687
250	0xbc8050f5	-0.015663603
251	0xbdadb38c	-0.084815115
252	0x3c7b9330	0.015354916
253	0xbdbefe74	-0.09325877
254	0xbe5314c5	-0.20613392
255	0xbdd2f410	-0.103004575

condition_encoder.2.bias f4 [64]
0	0xbdec0468	-0.11524278
1	0xbda9c337	-0.082891874
2	0x3d590146	0.05297973
3	0xbde2c7d9	-0.11073274
4	0x3d6b8cb0	0.057507217
5	0xbde89200	-0.11355972
6	0x3dbe0d97	0.09279936
7	0xbb85e940	-0.0040866435
8	0xbc872c02	-0.016500477
9	0x3d027eb5	0.03185912
10	0x3c81a4da	0.015825678
11	0x3d193ca6	0.037411354
12	0x3bbc8985	0.0057536983
13	0xbdb1d31d	-0.08682845
14	0x3cfb7513	0.030695474
15	0xbd2a29a5	-0.04154362
16	0x3d282cff	0.041058537
17	0xbbfe8eb7	-0.007768478
18	0x3d20a8a7	0.03922334
19	0xbd41f39b	-0.04735146
20	0x3c9861b7	0.018601282
21	0xbcc5f1ac	-0.02416309
22	0xbcb1b959	-0.021694826
23	0xbcc2d720	-0.02378422
24	0x3d45f205	0.04832651
25	0xbc90ff1d	-0.017699772
26	0x3dd41c36	0.10356943
27	0xbd9ad055	-0.075592674
28	0xbcb3bb8e	-0.021940019
29	0x3dbab7b3	0.09117069
30	0xbcf53bb2	-0.029935692
31	0x3de6aa72	0.112629786
32	0xbd661a1f	-0.056177255
33	0x3dbb6948	0.0915094
34	0x3b4c038e	0.0031130048
35	0xbd1bc00c	-0.038024947
36	0xbe01d35a	-0.1267828
37	0x3dc6d703	0.09708979
38	0x3c21410d	0.0098421695
39	0xbd3e4a9f	-0.046457883
40	0xbd1c56e2	-0.038168795
41	0xbcb63a75	-0.022244671
42	0xbd3b44db	-0.045719963
43	0xbbc9388e	-0.006140775
44	0xbe02acca	-0.12761226
45	0xbd26b928	-0.040703923
46	0x3e07f3df	0.13276623
47	0x3d864fa6	0.065581605
48	0x3dc6dca7	0.09710055
49	0xbc23a4cb	-0.00998802
50	0xbd83b902	-0.06431772
51	0x3db0e6a2	0.0863774
52	0x3dece510	0.11567128
53	0x3d1aee64	0.037825003
54	0x3d85f091	0.06540025
55	0xbdaef40f	-0.08542644
56	0xbe09bc5f	-0.13450764
57	0x3ad67220	0.0016360916
58	0xbc33e876	-0.010980716
59	0x3d93cdd6	0.072169945
60	0xbb516e42	-0.0031956588
61	0xbdbd929e	-0.09256481
62	0x3d95c444	0.07312825
63	0x3d0d7aa9	0.034540806
